…
=======================================================================================================================================================================================================================
Layer (type:depth-idx)                   Input Shape               Output Shape              Param #                   Param %                   Kernel Shape              Mult-Adds                 Trainable
=======================================================================================================================================================================================================================
Try7Model                                [2, 3, 32, 32]            [2, 10]                   --                             --                   --                        --                        True
├─Conv2d: 1-1                            [2, 3, 32, 32]            [2, 8, 32, 32]            216                         0.06%                   [3, 3]                    442,368                   True
├─InceptionResidualBlock: 1-2            [2, 8, 32, 32]            [2, 8, 32, 32]            --                             --                   --                        --                        True
│    └─BatchNorm2d: 2-1                  [2, 8, 32, 32]            [2, 8, 32, 32]            16                          0.00%                   --                        32                        True
│    └─ReLU: 2-2                         [2, 8, 32, 32]            [2, 8, 32, 32]            --                             --                   --                        --                        --
│    └─Conv2d: 2-3                       [2, 8, 32, 32]            [2, 16, 32, 32]           128                         0.04%                   [1, 1]                    262,144                   True
│    └─Sequential: 2-4                   [2, 8, 32, 32]            [2, 16, 32, 32]           --                             --                   --                        --                        True
│    │    └─Conv2d: 3-1                  [2, 8, 32, 32]            [2, 16, 32, 32]           128                         0.04%                   [1, 1]                    262,144                   True
│    │    └─BatchNorm2d: 3-2             [2, 16, 32, 32]           [2, 16, 32, 32]           32                          0.01%                   --                        64                        True
│    │    └─ReLU: 3-3                    [2, 16, 32, 32]           [2, 16, 32, 32]           --                             --                   --                        --                        --
│    │    └─Conv2d: 3-4                  [2, 16, 32, 32]           [2, 16, 32, 32]           2,304                       0.64%                   [3, 3]                    4,718,592                 True
│    └─Sequential: 2-5                   [2, 8, 32, 32]            [2, 16, 32, 32]           --                             --                   --                        --                        True
│    │    └─Conv2d: 3-5                  [2, 8, 32, 32]            [2, 16, 32, 32]           128                         0.04%                   [1, 1]                    262,144                   True
│    │    └─BatchNorm2d: 3-6             [2, 16, 32, 32]           [2, 16, 32, 32]           32                          0.01%                   --                        64                        True
│    │    └─ReLU: 3-7                    [2, 16, 32, 32]           [2, 16, 32, 32]           --                             --                   --                        --                        --
│    │    └─Conv2d: 3-8                  [2, 16, 32, 32]           [2, 16, 32, 32]           6,400                       1.77%                   [5, 5]                    13,107,200                True
│    └─Sequential: 2-6                   [2, 8, 32, 32]            [2, 16, 32, 32]           --                             --                   --                        --                        True
│    │    └─AvgPool2d: 3-9               [2, 8, 32, 32]            [2, 8, 32, 32]              --                             --                   3                         --                        --
│    │    └─Conv2d: 3-10                 [2, 8, 32, 32]            [2, 16, 32, 32]           128                         0.04%                   [1, 1]                    262,144                   True
│    └─BatchNorm2d: 2-7                  [2, 64, 32, 32]           [2, 64, 32, 32]           128                         0.04%                   --                        256                       True
│    └─ReLU: 2-8                         [2, 64, 32, 32]           [2, 64, 32, 32]           --                             --                   --                        --                        --
│    └─Conv2d: 2-9                       [2, 64, 32, 32]           [2, 8, 32, 32]            512                         0.14%                   [1, 1]                    1,048,576                 True
│    └─Identity: 2-10                    [2, 8, 32, 32]            [2, 8, 32, 32]            --                             --                   --                        --                        --
├─InceptionResidualBlock: 1-3            [2, 8, 32, 32]            [2, 16, 16, 16]           --                             --                   --                        --                        True
│    └─BatchNorm2d: 2-11                 [2, 8, 32, 32]            [2, 8, 32, 32]            16                          0.00%                   --                        32                        True
│    └─ReLU: 2-12                        [2, 8, 32, 32]            [2, 8, 32, 32]            --                             --                   --                        --                        --
│    └─Conv2d: 2-13                      [2, 8, 32, 32]            [2, 16, 16, 16]           128                         0.04%                   [1, 1]                    65,536                    True
│    └─Sequential: 2-14                  [2, 8, 32, 32]            [2, 16, 16, 16]           --                             --                   --                        --                        True
│    │    └─Conv2d: 3-11                 [2, 8, 32, 32]            [2, 16, 32, 32]           128                         0.04%                   [1, 1]                    262,144                   True
│    │    └─BatchNorm2d: 3-12            [2, 16, 32, 32]           [2, 16, 32, 32]           32                          0.01%                   --                        64                        True
│    │    └─ReLU: 3-13                   [2, 16, 32, 32]           [2, 16, 32, 32]           --                             --                   --                        --                        --
│    │    └─Conv2d: 3-14                 [2, 16, 32, 32]           [2, 16, 16, 16]           2,304                       0.64%                   [3, 3]                    1,179,648                 True
│    └─Sequential: 2-15                  [2, 8, 32, 32]            [2, 16, 16, 16]           --                             --                   --                        --                        True
│    │    └─Conv2d: 3-15                 [2, 8, 32, 32]            [2, 16, 32, 32]           128                         0.04%                   [1, 1]                    262,144                   True
│    │    └─BatchNorm2d: 3-16            [2, 16, 32, 32]           [2, 16, 32, 32]           32                          0.01%                   --                        64                        True
│    │    └─ReLU: 3-17                   [2, 16, 32, 32]           [2, 16, 32, 32]           --                             --                   --                        --                        --
│    │    └─Conv2d: 3-18                 [2, 16, 32, 32]           [2, 16, 16, 16]           6,400                       1.77%                   [5, 5]                    3,276,800                 True
│    └─Sequential: 2-16                  [2, 8, 32, 32]            [2, 16, 16, 16]           --                             --                   --                        --                        True
│    │    └─MaxPool2d: 3-19              [2, 8, 32, 32]            [2, 8, 16, 16]            --                             --                   3                         --                        --
│    │    └─Conv2d: 3-20                 [2, 8, 16, 16]            [2, 16, 16, 16]           128                         0.04%                   [1, 1]                    65,536                    True
│    └─BatchNorm2d: 2-17                 [2, 64, 16, 16]           [2, 64, 16, 16]           128                         0.04%                   --                        256                       True
│    └─ReLU: 2-18                        [2, 64, 16, 16]           [2, 64, 16, 16]           --                             --                   --                        --                        --
│    └─Conv2d: 2-19                      [2, 64, 16, 16]           [2, 16, 16, 16]           1,024                       0.28%                   [1, 1]                    524,288                   True
│    └─Conv2d: 2-20                      [2, 8, 32, 32]            [2, 16, 16, 16]           128                         0.04%                   [1, 1]                    65,536                    True
├─Sequential: 1-4                        [2, 16, 16, 16]           [2, 16, 16, 16]           --                             --                   --                        --                        True
│    └─InceptionResidualBlock: 2-21      [2, 16, 16, 16]           [2, 16, 16, 16]           --                             --                   --                        --                        True
│    │    └─BatchNorm2d: 3-21            [2, 16, 16, 16]           [2, 16, 16, 16]           32                          0.01%                   --                        64                        True
│    │    └─ReLU: 3-22                   [2, 16, 16, 16]           [2, 16, 16, 16]           --                             --                   --                        --                        --
│    │    └─Conv2d: 3-23                 [2, 16, 16, 16]           [2, 32, 16, 16]           512                         0.14%                   [1, 1]                    262,144                   True
│    │    └─Sequential: 3-24             [2, 16, 16, 16]           [2, 32, 16, 16]           --                             --                   --                        --                        True
│    │    │    └─Conv2d: 4-1             [2, 16, 16, 16]           [2, 32, 16, 16]           512                         0.14%                   [1, 1]                    262,144                   True
│    │    │    └─BatchNorm2d: 4-2        [2, 32, 16, 16]           [2, 32, 16, 16]           64                          0.02%                   --                        128                       True
│    │    │    └─ReLU: 4-3               [2, 32, 16, 16]           [2, 32, 16, 16]           --                             --                   --                        --                        --
│    │    │    └─Conv2d: 4-4             [2, 32, 16, 16]           [2, 32, 16, 16]           9,216                       2.55%                   [3, 3]                    4,718,592                 True
│    │    └─Sequential: 3-25             [2, 16, 16, 16]           [2, 32, 16, 16]           --                             --                   --                        --                        True
│    │    │    └─Conv2d: 4-5             [2, 16, 16, 16]           [2, 32, 16, 16]           512                         0.14%                   [1, 1]                    262,144                   True
│    │    │    └─BatchNorm2d: 4-6        [2, 32, 16, 16]           [2, 32, 16, 16]           64                          0.02%                   --                        128                       True
│    │    │    └─ReLU: 4-7               [2, 32, 16, 16]           [2, 32, 16, 16]           --                             --                   --                        --                        --
│    │    │    └─Conv2d: 4-8             [2, 32, 16, 16]           [2, 32, 16, 16]           25,600                      7.09%                   [5, 5]                    13,107,200                True
│    │    └─Sequential: 3-26             [2, 16, 16, 16]           [2, 32, 16, 16]           --                             --                   --                        --                        True
│    │    │    └─AvgPool2d: 4-9          [2, 16, 16, 16]           [2, 16, 16, 16]           --                             --                   3                         --                        --
│    │    │    └─Conv2d: 4-10            [2, 16, 16, 16]           [2, 32, 16, 16]           512                         0.14%                   [1, 1]                    262,144                   True
│    │    └─BatchNorm2d: 3-27            [2, 128, 16, 16]          [2, 128, 16, 16]          256                         0.07%                   --                        512                       True
│    │    └─ReLU: 3-28                   [2, 128, 16, 16]          [2, 128, 16, 16]          --                             --                   --                        --                        --
│    │    └─Conv2d: 3-29                 [2, 128, 16, 16]          [2, 16, 16, 16]           2,048                       0.57%                   [1, 1]                    1,048,576                 True
│    │    └─Identity: 3-30               [2, 16, 16, 16]           [2, 16, 16, 16]           --                             --                   --                        --                        --
│    └─BatchNorm2d: 2-22                 [2, 16, 16, 16]           [2, 16, 16, 16]           32                          0.01%                   --                        64                        True
│    └─ReLU: 2-23                        [2, 16, 16, 16]           [2, 16, 16, 16]           --                             --                   --                        --                        --
├─ChannelAttention: 1-5                  [2, 16, 16, 16]           [2, 16, 16, 16]           --                             --                   --                        --                        True
│    └─Linear: 2-24                      [2, 256, 16]              [2, 256, 16]              256                         0.07%                   --                        512                       True
│    └─Linear: 2-25                      [2, 256, 16]              [2, 256, 16]              256                         0.07%                   --                        512                       True
│    └─Linear: 2-26                      [2, 256, 16]              [2, 256, 16]              256                         0.07%                   --                        512                       True
│    └─Dropout: 2-27                     [2, 4, 16, 16]            [2, 4, 16, 16]            --                             --                   --                        --                        --
│    └─Linear: 2-28                      [2, 16]                   [2, 16]                   256                         0.07%                   --                        512                       True
├─SpatialAttention: 1-6                  [2, 16, 16, 16]           [2, 16, 16, 16]           256                         0.07%                   --                        --                        True
│    └─Conv2d: 2-29                      [2, 16, 16, 16]           [2, 16, 4, 4]             4,096                       1.13%                   [4, 4]                    131,072                   True
│    └─Linear: 2-30                      [2, 16, 16]               [2, 16, 16]               256                         0.07%                   --                        512                       True
│    └─Linear: 2-31                      [2, 16, 16]               [2, 16, 16]               256                         0.07%                   --                        512                       True
│    └─Linear: 2-32                      [2, 16, 16]               [2, 16, 16]               256                         0.07%                   --                        512                       True
│    └─Dropout: 2-33                     [2, 4, 16, 16]            [2, 4, 16, 16]            --                             --                   --                        --                        --
│    └─Linear: 2-34                      [2, 16, 16]               [2, 16, 16]               256                         0.07%                   --                        512                       True
├─Sequential: 1-7                        [2, 16, 16, 16]           [2, 32, 8, 8]             --                             --                   --                        --                        True
│    └─ResBlock: 2-35                    [2, 16, 16, 16]           [2, 32, 8, 8]             --                             --                   --                        --                        True
│    │    └─BatchNorm2d: 3-31            [2, 16, 16, 16]           [2, 16, 16, 16]           32                          0.01%                   --                        64                        True
│    │    └─ReLU: 3-32                   [2, 16, 16, 16]           [2, 16, 16, 16]           --                             --                   --                        --                        --
│    │    └─Conv2d: 3-33                 [2, 16, 16, 16]           [2, 32, 8, 8]             4,608                       1.28%                   [3, 3]                    589,824                   True
│    │    └─BatchNorm2d: 3-34            [2, 32, 8, 8]             [2, 32, 8, 8]             64                          0.02%                   --                        128                       True
│    │    └─ReLU: 3-35                   [2, 32, 8, 8]             [2, 32, 8, 8]             --                             --                   --                        --                        --
│    │    └─Dropout2d: 3-36              [2, 32, 8, 8]             [2, 32, 8, 8]             --                             --                   --                        --                        --
│    │    └─Conv2d: 3-37                 [2, 32, 8, 8]             [2, 32, 8, 8]             9,216                       2.55%                   [3, 3]                    1,179,648                 True
│    │    └─Conv2d: 3-38                 [2, 16, 16, 16]           [2, 32, 8, 8]             512                         0.14%                   [1, 1]                    65,536                    True
│    └─BatchNorm2d: 2-36                 [2, 32, 8, 8]             [2, 32, 8, 8]             64                          0.02%                   --                        128                       True
│    └─ReLU: 2-37                        [2, 32, 8, 8]             [2, 32, 8, 8]             --                             --                   --                        --                        --
├─ChannelAttention: 1-8                  [2, 32, 8, 8]             [2, 32, 8, 8]             --                             --                   --                        --                        True
│    └─Linear: 2-38                      [2, 64, 32]               [2, 64, 32]               1,024                       0.28%                   --                        2,048                     True
│    └─Linear: 2-39                      [2, 64, 32]               [2, 64, 32]               1,024                       0.28%                   --                        2,048                     True
│    └─Linear: 2-40                      [2, 64, 32]               [2, 64, 32]               1,024                       0.28%                   --                        2,048                     True
│    └─Dropout: 2-41                     [2, 4, 32, 32]            [2, 4, 32, 32]            --                             --                   --                        --                        --
│    └─Linear: 2-42                      [2, 32]                   [2, 32]                   1,024                       0.28%                   --                        2,048                     True
├─SpatialAttention: 1-9                  [2, 32, 8, 8]             [2, 32, 8, 8]             512                         0.14%                   --                        --                        True
│    └─Conv2d: 2-43                      [2, 32, 8, 8]             [2, 32, 4, 4]             4,096                       1.13%                   [2, 2]                    131,072                   True
│    └─Linear: 2-44                      [2, 16, 32]               [2, 16, 32]               1,024                       0.28%                   --                        2,048                     True
│    └─Linear: 2-45                      [2, 16, 32]               [2, 16, 32]               1,024                       0.28%                   --                        2,048                     True
│    └─Linear: 2-46                      [2, 16, 32]               [2, 16, 32]               1,024                       0.28%                   --                        2,048                     True
│    └─Dropout: 2-47                     [2, 4, 16, 16]            [2, 4, 16, 16]            --                             --                   --                        --                        --
│    └─Linear: 2-48                      [2, 16, 32]               [2, 16, 32]               1,024                       0.28%                   --                        2,048                     True
├─Sequential: 1-10                       [2, 32, 8, 8]             [2, 32, 8, 8]             --                             --                   --                        --                        True
│    └─ResBlock: 2-49                    [2, 32, 8, 8]             [2, 32, 8, 8]             --                             --                   --                        --                        True
│    │    └─BatchNorm2d: 3-39            [2, 32, 8, 8]             [2, 32, 8, 8]             64                          0.02%                   --                        128                       True
│    │    └─ReLU: 3-40                   [2, 32, 8, 8]             [2, 32, 8, 8]             --                             --                   --                        --                        --
│    │    └─Conv2d: 3-41                 [2, 32, 8, 8]             [2, 64, 8, 8]             18,432                      5.11%                   [3, 3]                    2,359,296                 True
│    │    └─BatchNorm2d: 3-42            [2, 64, 8, 8]             [2, 64, 8, 8]             128                         0.04%                   --                        256                       True
│    │    └─ReLU: 3-43                   [2, 64, 8, 8]             [2, 64, 8, 8]             --                             --                   --                        --                        --
│    │    └─Dropout2d: 3-44              [2, 64, 8, 8]             [2, 64, 8, 8]             --                             --                   --                        --                        --
│    │    └─Conv2d: 3-45                 [2, 64, 8, 8]             [2, 32, 8, 8]             18,432                      5.11%                   [3, 3]                    2,359,296                 True
│    │    └─Identity: 3-46               [2, 32, 8, 8]             [2, 32, 8, 8]             --                             --                   --                        --                        --
│    └─BatchNorm2d: 2-50                 [2, 32, 8, 8]             [2, 32, 8, 8]             64                          0.02%                   --                        128                       True
│    └─ReLU: 2-51                        [2, 32, 8, 8]             [2, 32, 8, 8]             --                             --                   --                        --                        --
├─ChannelAttention: 1-11                 [2, 32, 8, 8]             [2, 32, 8, 8]             --                             --                   --                        --                        True
│    └─Linear: 2-52                      [2, 64, 32]               [2, 64, 32]               1,024                       0.28%                   --                        2,048                     True
│    └─Linear: 2-53                      [2, 64, 32]               [2, 64, 32]               1,024                       0.28%                   --                        2,048                     True
│    └─Linear: 2-54                      [2, 64, 32]               [2, 64, 32]               1,024                       0.28%                   --                        2,048                     True
│    └─Dropout: 2-55                     [2, 4, 32, 32]            [2, 4, 32, 32]            --                             --                   --                        --                        --
│    └─Linear: 2-56                      [2, 32]                   [2, 32]                   1,024                       0.28%                   --                        2,048                     True
├─SpatialAttention: 1-12                 [2, 32, 8, 8]             [2, 32, 8, 8]             512                         0.14%                   --                        --                        True
│    └─Conv2d: 2-57                      [2, 32, 8, 8]             [2, 32, 4, 4]             4,096                       1.13%                   [2, 2]                    131,072                   True
│    └─Linear: 2-58                      [2, 16, 32]               [2, 16, 32]               1,024                       0.28%                   --                        2,048                     True
│    └─Linear: 2-59                      [2, 16, 32]               [2, 16, 32]               1,024                       0.28%                   --                        2,048                     True
│    └─Linear: 2-60                      [2, 16, 32]               [2, 16, 32]               1,024                       0.28%                   --                        2,048                     True
│    └─Dropout: 2-61                     [2, 4, 16, 16]            [2, 4, 16, 16]            --                             --                   --                        --                        --
│    └─Linear: 2-62                      [2, 16, 32]               [2, 16, 32]               1,024                       0.28%                   --                        2,048                     True
├─Sequential: 1-13                       [2, 32, 8, 8]             [2, 10]                   --                             --                   --                        --                        True
│    └─BatchNorm2d: 2-63                 [2, 32, 8, 8]             [2, 32, 8, 8]             64                          0.02%                   --                        128                       True
│    └─ReLU: 2-64                        [2, 32, 8, 8]             [2, 32, 8, 8]             --                             --                   --                        --                        --
│    └─Dropout2d: 2-65                   [2, 32, 8, 8]             [2, 32, 8, 8]             --                             --                   --                        --                        --
│    └─AdaptiveAvgPool2d: 2-66           [2, 32, 8, 8]             [2, 32, 1, 1]             --                             --                   --                        --                        --
│    └─Flatten: 2-67                     [2, 32, 1, 1]             [2, 32]                   --                             --                   --                        --                        --
│    └─Linear: 2-68                      [2, 32]                   [2, 10]                   330                         0.09%                   --                        660                       True
├─Sequential: 1-14                       [2, 32, 8, 8]             [2, 64, 4, 4]             --                             --                   --                        --                        True
│    └─ResBlock: 2-69                    [2, 32, 8, 8]             [2, 64, 4, 4]             --                             --                   --                        --                        True
│    │    └─BatchNorm2d: 3-47            [2, 32, 8, 8]             [2, 32, 8, 8]             64                          0.02%                   --                        128                       True
│    │    └─ReLU: 3-48                   [2, 32, 8, 8]             [2, 32, 8, 8]             --                             --                   --                        --                        --
│    │    └─Conv2d: 3-49                 [2, 32, 8, 8]             [2, 64, 4, 4]             18,432                      5.11%                   [3, 3]                    589,824                   True
│    │    └─BatchNorm2d: 3-50            [2, 64, 4, 4]             [2, 64, 4, 4]             128                         0.04%                   --                        256                       True
│    │    └─ReLU: 3-51                   [2, 64, 4, 4]             [2, 64, 4, 4]             --                             --                   --                        --                        --
│    │    └─Dropout2d: 3-52              [2, 64, 4, 4]             [2, 64, 4, 4]             --                             --                   --                        --                        --
│    │    └─Conv2d: 3-53                 [2, 64, 4, 4]             [2, 64, 4, 4]             36,864                     10.21%                   [3, 3]                    1,179,648                 True
│    │    └─Conv2d: 3-54                 [2, 32, 8, 8]             [2, 64, 4, 4]             2,048                       0.57%                   [1, 1]                    65,536                    True
│    └─BatchNorm2d: 2-70                 [2, 64, 4, 4]             [2, 64, 4, 4]             128                         0.04%                   --                        256                       True
│    └─ReLU: 2-71                        [2, 64, 4, 4]             [2, 64, 4, 4]             --                             --                   --                        --                        --
├─ChannelAttention: 1-15                 [2, 64, 4, 4]             [2, 64, 4, 4]             --                             --                   --                        --                        True
│    └─Linear: 2-72                      [2, 16, 64]               [2, 16, 64]               4,096                       1.13%                   --                        8,192                     True
│    └─Linear: 2-73                      [2, 16, 64]               [2, 16, 64]               4,096                       1.13%                   --                        8,192                     True
│    └─Linear: 2-74                      [2, 16, 64]               [2, 16, 64]               4,096                       1.13%                   --                        8,192                     True
│    └─Dropout: 2-75                     [2, 4, 64, 64]            [2, 4, 64, 64]            --                             --                   --                        --                        --
│    └─Linear: 2-76                      [2, 64]                   [2, 64]                   4,096                       1.13%                   --                        8,192                     True
├─SpatialAttention: 1-16                 [2, 64, 4, 4]             [2, 64, 4, 4]             1,024                       0.28%                   --                        --                        True
│    └─Conv2d: 2-77                      [2, 64, 4, 4]             [2, 64, 4, 4]             4,096                       1.13%                   [1, 1]                    131,072                   True
│    └─Linear: 2-78                      [2, 16, 64]               [2, 16, 64]               4,096                       1.13%                   --                        8,192                     True
│    └─Linear: 2-79                      [2, 16, 64]               [2, 16, 64]               4,096                       1.13%                   --                        8,192                     True
│    └─Linear: 2-80                      [2, 16, 64]               [2, 16, 64]               4,096                       1.13%                   --                        8,192                     True
│    └─Dropout: 2-81                     [2, 4, 16, 16]            [2, 4, 16, 16]            --                             --                   --                        --                        --
│    └─Linear: 2-82                      [2, 16, 64]               [2, 16, 64]               4,096                       1.13%                   --                        8,192                     True
├─Sequential: 1-17                       [2, 64, 4, 4]             [2, 10]                   --                             --                   --                        --                        True
│    └─BatchNorm2d: 2-83                 [2, 64, 4, 4]             [2, 64, 4, 4]             128                         0.04%                   --                        256                       True
│    └─ReLU: 2-84                        [2, 64, 4, 4]             [2, 64, 4, 4]             --                             --                   --                        --                        --
│    └─Dropout2d: 2-85                   [2, 64, 4, 4]             [2, 64, 4, 4]             --                             --                   --                        --                        --
│    └─AdaptiveAvgPool2d: 2-86           [2, 64, 4, 4]             [2, 64, 1, 1]             --                             --                   --                        --                        --
│    └─Flatten: 2-87                     [2, 64, 1, 1]             [2, 64]                   --                             --                   --                        --                        --
│    └─Linear: 2-88                      [2, 64]                   [2, 10]                   650                         0.18%                   --                        1,300                     True
├─ResBlock: 1-18                         [2, 64, 4, 4]             [2, 128, 2, 2]            --                             --                   --                        --                        True
│    └─BatchNorm2d: 2-89                 [2, 64, 4, 4]             [2, 64, 4, 4]             128                         0.04%                   --                        256                       True
│    └─ReLU: 2-90                        [2, 64, 4, 4]             [2, 64, 4, 4]             --                             --                   --                        --                        --
│    └─Conv2d: 2-91                      [2, 64, 4, 4]             [2, 64, 2, 2]             36,864                     10.21%                   [3, 3]                    294,912                   True
│    └─BatchNorm2d: 2-92                 [2, 64, 2, 2]             [2, 64, 2, 2]             128                         0.04%                   --                        256                       True
│    └─ReLU: 2-93                        [2, 64, 2, 2]             [2, 64, 2, 2]             --                             --                   --                        --                        --
│    └─Dropout2d: 2-94                   [2, 64, 2, 2]             [2, 64, 2, 2]             --                             --                   --                        --                        --
│    └─Conv2d: 2-95                      [2, 64, 2, 2]             [2, 128, 2, 2]            73,728                     20.42%                   [3, 3]                    589,824                   True
│    └─Conv2d: 2-96                      [2, 64, 4, 4]             [2, 128, 2, 2]            8,192                       2.27%                   [1, 1]                    65,536                    True
├─Sequential: 1-19                       [2, 128, 2, 2]            [2, 10]                   --                             --                   --                        --                        True
│    └─BatchNorm2d: 2-97                 [2, 128, 2, 2]            [2, 128, 2, 2]            256                         0.07%                   --                        512                       True
│    └─ReLU: 2-98                        [2, 128, 2, 2]            [2, 128, 2, 2]            --                             --                   --                        --                        --
│    └─Dropout2d: 2-99                   [2, 128, 2, 2]            [2, 128, 2, 2]            --                             --                   --                        --                        --
│    └─AdaptiveAvgPool2d: 2-100          [2, 128, 2, 2]            [2, 128, 1, 1]            --                             --                   --                        --                        --
│    └─Flatten: 2-101                    [2, 128, 1, 1]            [2, 128]                  --                             --                   --                        --                        --
│    └─Linear: 2-102                     [2, 128]                  [2, 10]                   1,290                       0.36%                   --                        2,580                     True
=======================================================================================================================================================================================================================
Total params: 361,014
Trainable params: 361,014
Non-trainable params: 0
Total mult-adds (Units.MEGABYTES): 55.96
…
