…
=======================================================================================================================================================================================================================
Layer (type:depth-idx)                   Input Shape               Output Shape              Param #                   Param %                   Kernel Shape              Mult-Adds                 Trainable
=======================================================================================================================================================================================================================
Try2Model                                [2, 3, 32, 32]            [2, 10]                   --                             --                   --                        --                        True
├─ConvNormActDrop: 1-1                   [2, 3, 32, 32]            [2, 16, 16, 16]           --                             --                   --                        --                        True
│    └─Conv2d: 2-1                       [2, 3, 32, 32]            [2, 16, 16, 16]           432                         0.11%                   [3, 3]                    221,184                   True
│    └─BatchNorm2d: 2-2                  [2, 16, 16, 16]           [2, 16, 16, 16]           32                          0.01%                   --                        64                        True
│    └─ReLU: 2-3                         [2, 16, 16, 16]           [2, 16, 16, 16]           --                             --                   --                        --                        --
│    └─Dropout2d: 2-4                    [2, 16, 16, 16]           [2, 16, 16, 16]           --                             --                   --                        --                        --
├─ConvNormActDrop: 1-2                   [2, 16, 16, 16]           [2, 32, 8, 8]             --                             --                   --                        --                        True
│    └─Conv2d: 2-5                       [2, 16, 16, 16]           [2, 32, 8, 8]             4,608                       1.16%                   [3, 3]                    589,824                   True
│    └─BatchNorm2d: 2-6                  [2, 32, 8, 8]             [2, 32, 8, 8]             64                          0.02%                   --                        128                       True
│    └─ReLU: 2-7                         [2, 32, 8, 8]             [2, 32, 8, 8]             --                             --                   --                        --                        --
│    └─Dropout2d: 2-8                    [2, 32, 8, 8]             [2, 32, 8, 8]             --                             --                   --                        --                        --
├─ConvNormActDrop: 1-3                   [2, 32, 8, 8]             [2, 64, 4, 4]             --                             --                   --                        --                        True
│    └─Conv2d: 2-9                       [2, 32, 8, 8]             [2, 64, 4, 4]             18,432                      4.66%                   [3, 3]                    589,824                   True
│    └─BatchNorm2d: 2-10                 [2, 64, 4, 4]             [2, 64, 4, 4]             128                         0.03%                   --                        256                       True
│    └─ReLU: 2-11                        [2, 64, 4, 4]             [2, 64, 4, 4]             --                             --                   --                        --                        --
│    └─Dropout2d: 2-12                   [2, 64, 4, 4]             [2, 64, 4, 4]             --                             --                   --                        --                        --
├─ConvNormActDrop: 1-4                   [2, 64, 4, 4]             [2, 128, 2, 2]            --                             --                   --                        --                        True
│    └─Conv2d: 2-13                      [2, 64, 4, 4]             [2, 128, 2, 2]            73,728                     18.63%                   [3, 3]                    589,824                   True
│    └─BatchNorm2d: 2-14                 [2, 128, 2, 2]            [2, 128, 2, 2]            256                         0.06%                   --                        512                       True
│    └─ReLU: 2-15                        [2, 128, 2, 2]            [2, 128, 2, 2]            --                             --                   --                        --                        --
│    └─Dropout2d: 2-16                   [2, 128, 2, 2]            [2, 128, 2, 2]            --                             --                   --                        --                        --
├─ConvNormActDrop: 1-5                   [2, 128, 2, 2]            [2, 256, 1, 1]            --                             --                   --                        --                        True
│    └─Conv2d: 2-17                      [2, 128, 2, 2]            [2, 256, 1, 1]            294,912                    74.53%                   [3, 3]                    589,824                   True
│    └─BatchNorm2d: 2-18                 [2, 256, 1, 1]            [2, 256, 1, 1]            512                         0.13%                   --                        1,024                     True
│    └─ReLU: 2-19                        [2, 256, 1, 1]            [2, 256, 1, 1]            --                             --                   --                        --                        --
│    └─Dropout2d: 2-20                   [2, 256, 1, 1]            [2, 256, 1, 1]            --                             --                   --                        --                        --
├─AdaptiveAvgPool2d: 1-6                 [2, 256, 1, 1]            [2, 256, 1, 1]            --                             --                   --                        --                        --
├─Linear: 1-7                            [2, 256]                  [2, 10]                   2,570                       0.65%                   --                        5,140                     True
=======================================================================================================================================================================================================================
Total params: 395,674
Trainable params: 395,674
Non-trainable params: 0
Total mult-adds (Units.MEGABYTES): 2.59
…
