…
=======================================================================================================================================================================================================================
Layer (type:depth-idx)                   Input Shape               Output Shape              Param #                   Param %                   Kernel Shape              Mult-Adds                 Trainable
=======================================================================================================================================================================================================================
Try5Model                                [2, 3, 32, 32]            [2, 10]                   --                             --                   --                        --                        True
├─Conv2d: 1-1                            [2, 3, 32, 32]            [2, 8, 32, 32]            216                         0.05%                   [3, 3]                    442,368                   True
├─ChannelAttention: 1-2                  [2, 8, 32, 32]            [2, 8, 32, 32]            --                             --                   --                        --                        True
│    └─Linear: 2-1                       [2, 8]                    [2, 8]                    64                          0.02%                   --                        128                       True
│    └─Linear: 2-2                       [2, 8]                    [2, 8]                    64                          0.02%                   --                        128                       True
│    └─Linear: 2-3                       [2, 8]                    [2, 8]                    64                          0.02%                   --                        128                       True
│    └─Linear: 2-4                       [2, 8]                    [2, 8]                    64                          0.02%                   --                        128                       True
├─ResidualBlock: 1-3                     [2, 8, 32, 32]            [2, 8, 32, 32]            --                             --                   --                        --                        True
│    └─BatchNorm2d: 2-5                  [2, 8, 32, 32]            [2, 8, 32, 32]            16                          0.00%                   --                        32                        True
│    └─ReLU: 2-6                         [2, 8, 32, 32]            [2, 8, 32, 32]            --                             --                   --                        --                        --
│    └─Conv2d: 2-7                       [2, 8, 32, 32]            [2, 16, 32, 32]           1,152                       0.28%                   [3, 3]                    2,359,296                 True
│    └─BatchNorm2d: 2-8                  [2, 16, 32, 32]           [2, 16, 32, 32]           32                          0.01%                   --                        64                        True
│    └─ReLU: 2-9                         [2, 16, 32, 32]           [2, 16, 32, 32]           --                             --                   --                        --                        --
│    └─Conv2d: 2-10                      [2, 16, 32, 32]           [2, 8, 32, 32]            1,152                       0.28%                   [3, 3]                    2,359,296                 True
│    └─Identity: 2-11                    [2, 8, 32, 32]            [2, 8, 32, 32]            --                             --                   --                        --                        --
├─ChannelAttention: 1-4                  [2, 8, 32, 32]            [2, 8, 32, 32]            --                             --                   --                        --                        True
│    └─Linear: 2-12                      [2, 8]                    [2, 8]                    64                          0.02%                   --                        128                       True
│    └─Linear: 2-13                      [2, 8]                    [2, 8]                    64                          0.02%                   --                        128                       True
│    └─Linear: 2-14                      [2, 8]                    [2, 8]                    64                          0.02%                   --                        128                       True
│    └─Linear: 2-15                      [2, 8]                    [2, 8]                    64                          0.02%                   --                        128                       True
├─ResidualBlock: 1-5                     [2, 8, 32, 32]            [2, 16, 16, 16]           --                             --                   --                        --                        True
│    └─BatchNorm2d: 2-16                 [2, 8, 32, 32]            [2, 8, 32, 32]            16                          0.00%                   --                        32                        True
│    └─ReLU: 2-17                        [2, 8, 32, 32]            [2, 8, 32, 32]            --                             --                   --                        --                        --
│    └─Conv2d: 2-18                      [2, 8, 32, 32]            [2, 16, 16, 16]           1,152                       0.28%                   [3, 3]                    589,824                   True
│    └─BatchNorm2d: 2-19                 [2, 16, 16, 16]           [2, 16, 16, 16]           32                          0.01%                   --                        64                        True
│    └─ReLU: 2-20                        [2, 16, 16, 16]           [2, 16, 16, 16]           --                             --                   --                        --                        --
│    └─Conv2d: 2-21                      [2, 16, 16, 16]           [2, 16, 16, 16]           2,304                       0.56%                   [3, 3]                    1,179,648                 True
│    └─Conv2d: 2-22                      [2, 8, 32, 32]            [2, 16, 16, 16]           1,152                       0.28%                   [3, 3]                    589,824                   True
├─ChannelAttention: 1-6                  [2, 16, 16, 16]           [2, 16, 16, 16]           --                             --                   --                        --                        True
│    └─Linear: 2-23                      [2, 16]                   [2, 16]                   256                         0.06%                   --                        512                       True
│    └─Linear: 2-24                      [2, 16]                   [2, 16]                   256                         0.06%                   --                        512                       True
│    └─Linear: 2-25                      [2, 16]                   [2, 16]                   256                         0.06%                   --                        512                       True
│    └─Linear: 2-26                      [2, 16]                   [2, 16]                   256                         0.06%                   --                        512                       True
├─ResidualBlock: 1-7                     [2, 16, 16, 16]           [2, 16, 16, 16]           --                             --                   --                        --                        True
│    └─BatchNorm2d: 2-27                 [2, 16, 16, 16]           [2, 16, 16, 16]           32                          0.01%                   --                        64                        True
│    └─ReLU: 2-28                        [2, 16, 16, 16]           [2, 16, 16, 16]           --                             --                   --                        --                        --
│    └─Conv2d: 2-29                      [2, 16, 16, 16]           [2, 32, 16, 16]           4,608                       1.12%                   [3, 3]                    2,359,296                 True
│    └─BatchNorm2d: 2-30                 [2, 32, 16, 16]           [2, 32, 16, 16]           64                          0.02%                   --                        128                       True
│    └─ReLU: 2-31                        [2, 32, 16, 16]           [2, 32, 16, 16]           --                             --                   --                        --                        --
│    └─Conv2d: 2-32                      [2, 32, 16, 16]           [2, 16, 16, 16]           4,608                       1.12%                   [3, 3]                    2,359,296                 True
│    └─Identity: 2-33                    [2, 16, 16, 16]           [2, 16, 16, 16]           --                             --                   --                        --                        --
├─ChannelAttention: 1-8                  [2, 16, 16, 16]           [2, 16, 16, 16]           --                             --                   --                        --                        True
│    └─Linear: 2-34                      [2, 16]                   [2, 16]                   256                         0.06%                   --                        512                       True
│    └─Linear: 2-35                      [2, 16]                   [2, 16]                   256                         0.06%                   --                        512                       True
│    └─Linear: 2-36                      [2, 16]                   [2, 16]                   256                         0.06%                   --                        512                       True
│    └─Linear: 2-37                      [2, 16]                   [2, 16]                   256                         0.06%                   --                        512                       True
├─ResidualBlock: 1-9                     [2, 16, 16, 16]           [2, 32, 8, 8]             --                             --                   --                        --                        True
│    └─BatchNorm2d: 2-38                 [2, 16, 16, 16]           [2, 16, 16, 16]           32                          0.01%                   --                        64                        True
│    └─ReLU: 2-39                        [2, 16, 16, 16]           [2, 16, 16, 16]           --                             --                   --                        --                        --
│    └─Conv2d: 2-40                      [2, 16, 16, 16]           [2, 32, 8, 8]             4,608                       1.12%                   [3, 3]                    589,824                   True
│    └─BatchNorm2d: 2-41                 [2, 32, 8, 8]             [2, 32, 8, 8]             64                          0.02%                   --                        128                       True
│    └─ReLU: 2-42                        [2, 32, 8, 8]             [2, 32, 8, 8]             --                             --                   --                        --                        --
│    └─Conv2d: 2-43                      [2, 32, 8, 8]             [2, 32, 8, 8]             9,216                       2.25%                   [3, 3]                    1,179,648                 True
│    └─Conv2d: 2-44                      [2, 16, 16, 16]           [2, 32, 8, 8]             4,608                       1.12%                   [3, 3]                    589,824                   True
├─ChannelAttention: 1-10                 [2, 32, 8, 8]             [2, 32, 8, 8]             --                             --                   --                        --                        True
│    └─Linear: 2-45                      [2, 32]                   [2, 32]                   1,024                       0.25%                   --                        2,048                     True
│    └─Linear: 2-46                      [2, 32]                   [2, 32]                   1,024                       0.25%                   --                        2,048                     True
│    └─Linear: 2-47                      [2, 32]                   [2, 32]                   1,024                       0.25%                   --                        2,048                     True
│    └─Linear: 2-48                      [2, 32]                   [2, 32]                   1,024                       0.25%                   --                        2,048                     True
├─ResidualBlock: 1-11                    [2, 32, 8, 8]             [2, 32, 8, 8]             --                             --                   --                        --                        True
│    └─BatchNorm2d: 2-49                 [2, 32, 8, 8]             [2, 32, 8, 8]             64                          0.02%                   --                        128                       True
│    └─ReLU: 2-50                        [2, 32, 8, 8]             [2, 32, 8, 8]             --                             --                   --                        --                        --
│    └─Conv2d: 2-51                      [2, 32, 8, 8]             [2, 64, 8, 8]             18,432                      4.50%                   [3, 3]                    2,359,296                 True
│    └─BatchNorm2d: 2-52                 [2, 64, 8, 8]             [2, 64, 8, 8]             128                         0.03%                   --                        256                       True
│    └─ReLU: 2-53                        [2, 64, 8, 8]             [2, 64, 8, 8]             --                             --                   --                        --                        --
│    └─Conv2d: 2-54                      [2, 64, 8, 8]             [2, 32, 8, 8]             18,432                      4.50%                   [3, 3]                    2,359,296                 True
│    └─Identity: 2-55                    [2, 32, 8, 8]             [2, 32, 8, 8]             --                             --                   --                        --                        --
├─ChannelAttention: 1-12                 [2, 32, 8, 8]             [2, 32, 8, 8]             --                             --                   --                        --                        True
│    └─Linear: 2-56                      [2, 32]                   [2, 32]                   1,024                       0.25%                   --                        2,048                     True
│    └─Linear: 2-57                      [2, 32]                   [2, 32]                   1,024                       0.25%                   --                        2,048                     True
│    └─Linear: 2-58                      [2, 32]                   [2, 32]                   1,024                       0.25%                   --                        2,048                     True
│    └─Linear: 2-59                      [2, 32]                   [2, 32]                   1,024                       0.25%                   --                        2,048                     True
├─DWResBlock: 1-13                       [2, 32, 8, 8]             [2, 64, 4, 4]             --                             --                   --                        --                        True
│    └─BatchNorm2d: 2-60                 [2, 32, 8, 8]             [2, 32, 8, 8]             64                          0.02%                   --                        128                       True
│    └─ReLU: 2-61                        [2, 32, 8, 8]             [2, 32, 8, 8]             --                             --                   --                        --                        --
│    └─DWConv: 2-62                      [2, 32, 8, 8]             [2, 64, 4, 4]             --                             --                   --                        --                        True
│    │    └─Conv2d: 3-1                  [2, 32, 8, 8]             [2, 64, 4, 8]             6,144                       1.50%                   [3, 1]                    393,216                   True
│    │    └─BatchNorm2d: 3-2             [2, 64, 4, 8]             [2, 64, 4, 8]             128                         0.03%                   --                        256                       True
│    │    └─ReLU: 3-3                    [2, 64, 4, 8]             [2, 64, 4, 8]             --                             --                   --                        --                        --
│    │    └─Conv2d: 3-4                  [2, 64, 4, 8]             [2, 64, 4, 4]             12,288                      3.00%                   [1, 3]                    393,216                   True
│    └─BatchNorm2d: 2-63                 [2, 64, 4, 4]             [2, 64, 4, 4]             128                         0.03%                   --                        256                       True
│    └─ReLU: 2-64                        [2, 64, 4, 4]             [2, 64, 4, 4]             --                             --                   --                        --                        --
│    └─DWConv: 2-65                      [2, 64, 4, 4]             [2, 64, 4, 4]             --                             --                   --                        --                        True
│    │    └─Conv2d: 3-5                  [2, 64, 4, 4]             [2, 64, 4, 4]             12,288                      3.00%                   [3, 1]                    393,216                   True
│    │    └─BatchNorm2d: 3-6             [2, 64, 4, 4]             [2, 64, 4, 4]             128                         0.03%                   --                        256                       True
│    │    └─ReLU: 3-7                    [2, 64, 4, 4]             [2, 64, 4, 4]             --                             --                   --                        --                        --
│    │    └─Conv2d: 3-8                  [2, 64, 4, 4]             [2, 64, 4, 4]             12,288                      3.00%                   [1, 3]                    393,216                   True
│    └─DWConv: 2-66                      [2, 32, 8, 8]             [2, 64, 4, 4]             --                             --                   --                        --                        True
│    │    └─Conv2d: 3-9                  [2, 32, 8, 8]             [2, 64, 4, 8]             6,144                       1.50%                   [3, 1]                    393,216                   True
│    │    └─BatchNorm2d: 3-10            [2, 64, 4, 8]             [2, 64, 4, 8]             128                         0.03%                   --                        256                       True
│    │    └─ReLU: 3-11                   [2, 64, 4, 8]             [2, 64, 4, 8]             --                             --                   --                        --                        --
│    │    └─Conv2d: 3-12                 [2, 64, 4, 8]             [2, 64, 4, 4]             12,288                      3.00%                   [1, 3]                    393,216                   True
├─ChannelAttention: 1-14                 [2, 64, 4, 4]             [2, 64, 4, 4]             --                             --                   --                        --                        True
│    └─Linear: 2-67                      [2, 64]                   [2, 64]                   4,096                       1.00%                   --                        8,192                     True
│    └─Linear: 2-68                      [2, 64]                   [2, 64]                   4,096                       1.00%                   --                        8,192                     True
│    └─Linear: 2-69                      [2, 64]                   [2, 64]                   4,096                       1.00%                   --                        8,192                     True
│    └─Linear: 2-70                      [2, 64]                   [2, 64]                   4,096                       1.00%                   --                        8,192                     True
├─DWResBlock: 1-15                       [2, 64, 4, 4]             [2, 128, 2, 2]            --                             --                   --                        --                        True
│    └─BatchNorm2d: 2-71                 [2, 64, 4, 4]             [2, 64, 4, 4]             128                         0.03%                   --                        256                       True
│    └─ReLU: 2-72                        [2, 64, 4, 4]             [2, 64, 4, 4]             --                             --                   --                        --                        --
│    └─DWConv: 2-73                      [2, 64, 4, 4]             [2, 128, 2, 2]            --                             --                   --                        --                        True
│    │    └─Conv2d: 3-13                 [2, 64, 4, 4]             [2, 128, 2, 4]            24,576                      6.00%                   [3, 1]                    393,216                   True
│    │    └─BatchNorm2d: 3-14            [2, 128, 2, 4]            [2, 128, 2, 4]            256                         0.06%                   --                        512                       True
│    │    └─ReLU: 3-15                   [2, 128, 2, 4]            [2, 128, 2, 4]            --                             --                   --                        --                        --
│    │    └─Conv2d: 3-16                 [2, 128, 2, 4]            [2, 128, 2, 2]            49,152                     12.00%                   [1, 3]                    393,216                   True
│    └─BatchNorm2d: 2-74                 [2, 128, 2, 2]            [2, 128, 2, 2]            256                         0.06%                   --                        512                       True
│    └─ReLU: 2-75                        [2, 128, 2, 2]            [2, 128, 2, 2]            --                             --                   --                        --                        --
│    └─DWConv: 2-76                      [2, 128, 2, 2]            [2, 128, 2, 2]            --                             --                   --                        --                        True
│    │    └─Conv2d: 3-17                 [2, 128, 2, 2]            [2, 128, 2, 2]            49,152                     12.00%                   [3, 1]                    393,216                   True
│    │    └─BatchNorm2d: 3-18            [2, 128, 2, 2]            [2, 128, 2, 2]            256                         0.06%                   --                        512                       True
│    │    └─ReLU: 3-19                   [2, 128, 2, 2]            [2, 128, 2, 2]            --                             --                   --                        --                        --
│    │    └─Conv2d: 3-20                 [2, 128, 2, 2]            [2, 128, 2, 2]            49,152                     12.00%                   [1, 3]                    393,216                   True
│    └─DWConv: 2-77                      [2, 64, 4, 4]             [2, 128, 2, 2]            --                             --                   --                        --                        True
│    │    └─Conv2d: 3-21                 [2, 64, 4, 4]             [2, 128, 2, 4]            24,576                      6.00%                   [3, 1]                    393,216                   True
│    │    └─BatchNorm2d: 3-22            [2, 128, 2, 4]            [2, 128, 2, 4]            256                         0.06%                   --                        512                       True
│    │    └─ReLU: 3-23                   [2, 128, 2, 4]            [2, 128, 2, 4]            --                             --                   --                        --                        --
│    │    └─Conv2d: 3-24                 [2, 128, 2, 4]            [2, 128, 2, 2]            49,152                     12.00%                   [1, 3]                    393,216                   True
├─BatchNorm2d: 1-16                      [2, 128, 2, 2]            [2, 128, 2, 2]            256                         0.06%                   --                        512                       True
├─ReLU: 1-17                             [2, 128, 2, 2]            [2, 128, 2, 2]            --                             --                   --                        --                        --
├─AdaptiveAvgPool2d: 1-18                [2, 128, 2, 2]            [2, 128, 1, 1]            --                             --                   --                        --                        --
├─Linear: 1-19                           [2, 128]                  [2, 10]                   1,290                       0.31%                   --                        2,580                     True
=======================================================================================================================================================================================================================
Total params: 409,730
Trainable params: 409,730
Non-trainable params: 0
Total mult-adds (Units.MEGABYTES): 24.10
…
