…
=======================================================================================================================================================================================================================
Layer (type:depth-idx)                   Input Shape               Output Shape              Param #                   Param %                   Kernel Shape              Mult-Adds                 Trainable
=======================================================================================================================================================================================================================
Try3Model                                [2, 3, 32, 32]            [2, 10]                   --                             --                   --                        --                        True
├─Conv2d: 1-1                            [2, 3, 32, 32]            [2, 8, 32, 32]            216                         0.07%                   [3, 3]                    442,368                   True
├─ResidualBlock: 1-2                     [2, 8, 32, 32]            [2, 8, 32, 32]            --                             --                   --                        --                        True
│    └─BatchNorm2d: 2-1                  [2, 8, 32, 32]            [2, 8, 32, 32]            16                          0.01%                   --                        32                        True
│    └─ReLU: 2-2                         [2, 8, 32, 32]            [2, 8, 32, 32]            --                             --                   --                        --                        --
│    └─Conv2d: 2-3                       [2, 8, 32, 32]            [2, 16, 32, 32]           1,152                       0.39%                   [3, 3]                    2,359,296                 True
│    └─BatchNorm2d: 2-4                  [2, 16, 32, 32]           [2, 16, 32, 32]           32                          0.01%                   --                        64                        True
│    └─ReLU: 2-5                         [2, 16, 32, 32]           [2, 16, 32, 32]           --                             --                   --                        --                        --
│    └─Conv2d: 2-6                       [2, 16, 32, 32]           [2, 8, 32, 32]            1,152                       0.39%                   [3, 3]                    2,359,296                 True
│    └─Identity: 2-7                     [2, 8, 32, 32]            [2, 8, 32, 32]            --                             --                   --                        --                        --
├─DWResidualBlock: 1-3                   [2, 8, 32, 32]            [2, 16, 16, 16]           --                             --                   --                        --                        True
│    └─BatchNorm2d: 2-8                  [2, 8, 32, 32]            [2, 8, 32, 32]            16                          0.01%                   --                        32                        True
│    └─ReLU: 2-9                         [2, 8, 32, 32]            [2, 8, 32, 32]            --                             --                   --                        --                        --
│    └─Conv2d: 2-10                      [2, 8, 32, 32]            [2, 16, 16, 16]           1,152                       0.39%                   [3, 3]                    589,824                   True
│    └─BatchNorm2d: 2-11                 [2, 16, 16, 16]           [2, 16, 16, 16]           32                          0.01%                   --                        64                        True
│    └─ReLU: 2-12                        [2, 16, 16, 16]           [2, 16, 16, 16]           --                             --                   --                        --                        --
│    └─Conv2d: 2-13                      [2, 16, 16, 16]           [2, 16, 16, 16]           2,304                       0.78%                   [3, 3]                    1,179,648                 True
│    └─Conv2d: 2-14                      [2, 8, 32, 32]            [2, 16, 16, 16]           1,152                       0.39%                   [3, 3]                    589,824                   True
├─ResidualBlock: 1-4                     [2, 16, 16, 16]           [2, 16, 16, 16]           --                             --                   --                        --                        True
│    └─BatchNorm2d: 2-15                 [2, 16, 16, 16]           [2, 16, 16, 16]           32                          0.01%                   --                        64                        True
│    └─ReLU: 2-16                        [2, 16, 16, 16]           [2, 16, 16, 16]           --                             --                   --                        --                        --
│    └─Conv2d: 2-17                      [2, 16, 16, 16]           [2, 32, 16, 16]           4,608                       1.56%                   [3, 3]                    2,359,296                 True
│    └─BatchNorm2d: 2-18                 [2, 32, 16, 16]           [2, 32, 16, 16]           64                          0.02%                   --                        128                       True
│    └─ReLU: 2-19                        [2, 32, 16, 16]           [2, 32, 16, 16]           --                             --                   --                        --                        --
│    └─Conv2d: 2-20                      [2, 32, 16, 16]           [2, 16, 16, 16]           4,608                       1.56%                   [3, 3]                    2,359,296                 True
│    └─Identity: 2-21                    [2, 16, 16, 16]           [2, 16, 16, 16]           --                             --                   --                        --                        --
├─DWResidualBlock: 1-5                   [2, 16, 16, 16]           [2, 32, 8, 8]             --                             --                   --                        --                        True
│    └─BatchNorm2d: 2-22                 [2, 16, 16, 16]           [2, 16, 16, 16]           32                          0.01%                   --                        64                        True
│    └─ReLU: 2-23                        [2, 16, 16, 16]           [2, 16, 16, 16]           --                             --                   --                        --                        --
│    └─Conv2d: 2-24                      [2, 16, 16, 16]           [2, 32, 8, 8]             4,608                       1.56%                   [3, 3]                    589,824                   True
│    └─BatchNorm2d: 2-25                 [2, 32, 8, 8]             [2, 32, 8, 8]             64                          0.02%                   --                        128                       True
│    └─ReLU: 2-26                        [2, 32, 8, 8]             [2, 32, 8, 8]             --                             --                   --                        --                        --
│    └─Conv2d: 2-27                      [2, 32, 8, 8]             [2, 32, 8, 8]             9,216                       3.13%                   [3, 3]                    1,179,648                 True
│    └─Conv2d: 2-28                      [2, 16, 16, 16]           [2, 32, 8, 8]             4,608                       1.56%                   [3, 3]                    589,824                   True
├─ResidualBlock: 1-6                     [2, 32, 8, 8]             [2, 32, 8, 8]             --                             --                   --                        --                        True
│    └─BatchNorm2d: 2-29                 [2, 32, 8, 8]             [2, 32, 8, 8]             64                          0.02%                   --                        128                       True
│    └─ReLU: 2-30                        [2, 32, 8, 8]             [2, 32, 8, 8]             --                             --                   --                        --                        --
│    └─Conv2d: 2-31                      [2, 32, 8, 8]             [2, 64, 8, 8]             18,432                      6.26%                   [3, 3]                    2,359,296                 True
│    └─BatchNorm2d: 2-32                 [2, 64, 8, 8]             [2, 64, 8, 8]             128                         0.04%                   --                        256                       True
│    └─ReLU: 2-33                        [2, 64, 8, 8]             [2, 64, 8, 8]             --                             --                   --                        --                        --
│    └─Conv2d: 2-34                      [2, 64, 8, 8]             [2, 32, 8, 8]             18,432                      6.26%                   [3, 3]                    2,359,296                 True
│    └─Identity: 2-35                    [2, 32, 8, 8]             [2, 32, 8, 8]             --                             --                   --                        --                        --
├─DWResidualBlock: 1-7                   [2, 32, 8, 8]             [2, 64, 4, 4]             --                             --                   --                        --                        True
│    └─BatchNorm2d: 2-36                 [2, 32, 8, 8]             [2, 32, 8, 8]             64                          0.02%                   --                        128                       True
│    └─ReLU: 2-37                        [2, 32, 8, 8]             [2, 32, 8, 8]             --                             --                   --                        --                        --
│    └─Conv2d: 2-38                      [2, 32, 8, 8]             [2, 64, 4, 4]             18,432                      6.26%                   [3, 3]                    589,824                   True
│    └─BatchNorm2d: 2-39                 [2, 64, 4, 4]             [2, 64, 4, 4]             128                         0.04%                   --                        256                       True
│    └─ReLU: 2-40                        [2, 64, 4, 4]             [2, 64, 4, 4]             --                             --                   --                        --                        --
│    └─Conv2d: 2-41                      [2, 64, 4, 4]             [2, 64, 4, 4]             36,864                     12.51%                   [3, 3]                    1,179,648                 True
│    └─Conv2d: 2-42                      [2, 32, 8, 8]             [2, 64, 4, 4]             18,432                      6.26%                   [3, 3]                    589,824                   True
├─ResidualBlock: 1-8                     [2, 64, 4, 4]             [2, 64, 4, 4]             --                             --                   --                        --                        True
│    └─BatchNorm2d: 2-43                 [2, 64, 4, 4]             [2, 64, 4, 4]             128                         0.04%                   --                        256                       True
│    └─ReLU: 2-44                        [2, 64, 4, 4]             [2, 64, 4, 4]             --                             --                   --                        --                        --
│    └─Conv2d: 2-45                      [2, 64, 4, 4]             [2, 128, 4, 4]            73,728                     25.02%                   [3, 3]                    2,359,296                 True
│    └─BatchNorm2d: 2-46                 [2, 128, 4, 4]            [2, 128, 4, 4]            256                         0.09%                   --                        512                       True
│    └─ReLU: 2-47                        [2, 128, 4, 4]            [2, 128, 4, 4]            --                             --                   --                        --                        --
│    └─Conv2d: 2-48                      [2, 128, 4, 4]            [2, 64, 4, 4]             73,728                     25.02%                   [3, 3]                    2,359,296                 True
│    └─Identity: 2-49                    [2, 64, 4, 4]             [2, 64, 4, 4]             --                             --                   --                        --                        --
├─BatchNorm2d: 1-9                       [2, 64, 4, 4]             [2, 64, 4, 4]             128                         0.04%                   --                        256                       True
├─ReLU: 1-10                             [2, 64, 4, 4]             [2, 64, 4, 4]             --                             --                   --                        --                        --
├─AdaptiveAvgPool2d: 1-11                [2, 64, 4, 4]             [2, 64, 1, 1]             --                             --                   --                        --                        --
├─Linear: 1-12                           [2, 64]                   [2, 10]                   650                         0.22%                   --                        1,300                     True
=======================================================================================================================================================================================================================
Total params: 294,658
Trainable params: 294,658
Non-trainable params: 0
Total mult-adds (Units.MEGABYTES): 26.40
…
