…
=======================================================================================================================================================================================================================
Layer (type:depth-idx)                   Input Shape               Output Shape              Param #                   Param %                   Kernel Shape              Mult-Adds                 Trainable
=======================================================================================================================================================================================================================
Try8Model                                [2, 3, 32, 32]            [2, 10]                   4                           0.00%                   --                        --                        True
├─Conv2d: 1-1                            [2, 3, 32, 32]            [2, 32, 32, 32]           864                         0.23%                   [3, 3]                    1,769,472                 True
├─InceptionResidualBlock: 1-2            [2, 32, 32, 32]           [2, 32, 32, 32]           --                             --                   --                        --                        True
│    └─BatchNorm2d: 2-1                  [2, 32, 32, 32]           [2, 32, 32, 32]           64                          0.02%                   --                        128                       True
│    └─ReLU: 2-2                         [2, 32, 32, 32]           [2, 32, 32, 32]           --                             --                   --                        --                        --
│    └─Conv2d: 2-3                       [2, 32, 32, 32]           [2, 10, 32, 32]           320                         0.09%                   [1, 1]                    655,360                   True
│    └─Sequential: 2-4                   [2, 32, 32, 32]           [2, 10, 32, 32]           --                             --                   --                        --                        True
│    │    └─Conv2d: 3-1                  [2, 32, 32, 32]           [2, 10, 32, 32]           320                         0.09%                   [1, 1]                    655,360                   True
│    │    └─BatchNorm2d: 3-2             [2, 10, 32, 32]           [2, 10, 32, 32]           20                          0.01%                   --                        40                        True
│    │    └─ReLU: 3-3                    [2, 10, 32, 32]           [2, 10, 32, 32]           --                             --                   --                        --                        --
│    │    └─Conv2d: 3-4                  [2, 10, 32, 32]           [2, 10, 32, 32]           900                         0.24%                   [3, 3]                    1,843,200                 True
│    └─Sequential: 2-5                   [2, 32, 32, 32]           [2, 10, 32, 32]           --                             --                   --                        --                        True
│    │    └─Conv2d: 3-5                  [2, 32, 32, 32]           [2, 10, 32, 32]           320                         0.09%                   [1, 1]                    655,360                   True
│    │    └─BatchNorm2d: 3-6             [2, 10, 32, 32]           [2, 10, 32, 32]           20                          0.01%                   --                        40                        True
│    │    └─ReLU: 3-7                    [2, 10, 32, 32]           [2, 10, 32, 32]           --                             --                   --                        --                        --
│    │    └─Conv2d: 3-8                  [2, 10, 32, 32]           [2, 10, 32, 32]           900                         0.24%                   [3, 3]                    1,843,200                 True
│    │    └─BatchNorm2d: 3-9             [2, 10, 32, 32]           [2, 10, 32, 32]           20                          0.01%                   --                        40                        True
│    │    └─ReLU: 3-10                   [2, 10, 32, 32]           [2, 10, 32, 32]           --                             --                   --                        --                        --
│    │    └─Conv2d: 3-11                 [2, 10, 32, 32]           [2, 10, 32, 32]           900                         0.24%                   [3, 3]                    1,843,200                 True
│    └─Sequential: 2-6                   [2, 32, 32, 32]           [2, 10, 32, 32]           --                             --                   --                        --                        True
│    │    └─Conv2d: 3-12                 [2, 32, 32, 32]           [2, 10, 32, 32]           320                         0.09%                   [1, 1]                    655,360                   True
│    │    └─BatchNorm2d: 3-13            [2, 10, 32, 32]           [2, 10, 32, 32]           20                          0.01%                   --                        40                        True
│    │    └─ReLU: 3-14                   [2, 10, 32, 32]           [2, 10, 32, 32]           --                             --                   --                        --                        --
│    │    └─Conv2d: 3-15                 [2, 10, 32, 32]           [2, 10, 32, 32]           900                         0.24%                   [3, 3]                    1,843,200                 True
│    │    └─BatchNorm2d: 3-16            [2, 10, 32, 32]           [2, 10, 32, 32]           20                          0.01%                   --                        40                        True
│    │    └─ReLU: 3-17                   [2, 10, 32, 32]           [2, 10, 32, 32]           --                             --                   --                        --                        --
│    │    └─Conv2d: 3-18                 [2, 10, 32, 32]           [2, 10, 32, 32]           900                         0.24%                   [3, 3]                    1,843,200                 True
│    │    └─BatchNorm2d: 3-19            [2, 10, 32, 32]           [2, 10, 32, 32]           20                          0.01%                   --                        40                        True
│    │    └─ReLU: 3-20                   [2, 10, 32, 32]           [2, 10, 32, 32]           --                             --                   --                        --                        --
│    │    └─Conv2d: 3-21                 [2, 10, 32, 32]           [2, 10, 32, 32]           900                         0.24%                   [3, 3]                    1,843,200                 True
│    └─Sequential: 2-7                   [2, 32, 32, 32]           [2, 10, 32, 32]           --                             --                   --                        --                        True
│    │    └─AvgPool2d: 3-22              [2, 32, 32, 32]           [2, 32, 32, 32]           --                             --                   3                         --                        --
│    │    └─Conv2d: 3-23                 [2, 32, 32, 32]           [2, 10, 32, 32]           320                         0.09%                   [1, 1]                    655,360                   True
│    └─BatchNorm2d: 2-8                  [2, 50, 32, 32]           [2, 50, 32, 32]           100                         0.03%                   --                        200                       True
│    └─ReLU: 2-9                         [2, 50, 32, 32]           [2, 50, 32, 32]           --                             --                   --                        --                        --
│    └─Conv2d: 2-10                      [2, 50, 32, 32]           [2, 32, 32, 32]           1,600                       0.43%                   [1, 1]                    3,276,800                 True
│    └─Identity: 2-11                    [2, 32, 32, 32]           [2, 32, 32, 32]           --                             --                   --                        --                        --
├─InceptionResidualBlock: 1-3            [2, 32, 32, 32]           [2, 32, 16, 16]           --                             --                   --                        --                        True
│    └─BatchNorm2d: 2-12                 [2, 32, 32, 32]           [2, 32, 32, 32]           64                          0.02%                   --                        128                       True
│    └─ReLU: 2-13                        [2, 32, 32, 32]           [2, 32, 32, 32]           --                             --                   --                        --                        --
│    └─Conv2d: 2-14                      [2, 32, 32, 32]           [2, 10, 16, 16]           320                         0.09%                   [1, 1]                    163,840                   True
│    └─Sequential: 2-15                  [2, 32, 32, 32]           [2, 10, 16, 16]           --                             --                   --                        --                        True
│    │    └─Conv2d: 3-24                 [2, 32, 32, 32]           [2, 10, 32, 32]           320                         0.09%                   [1, 1]                    655,360                   True
│    │    └─BatchNorm2d: 3-25            [2, 10, 32, 32]           [2, 10, 32, 32]           20                          0.01%                   --                        40                        True
│    │    └─ReLU: 3-26                   [2, 10, 32, 32]           [2, 10, 32, 32]           --                             --                   --                        --                        --
│    │    └─Conv2d: 3-27                 [2, 10, 32, 32]           [2, 10, 16, 16]           900                         0.24%                   [3, 3]                    460,800                   True
│    └─Sequential: 2-16                  [2, 32, 32, 32]           [2, 10, 16, 16]           --                             --                   --                        --                        True
│    │    └─Conv2d: 3-28                 [2, 32, 32, 32]           [2, 10, 32, 32]           320                         0.09%                   [1, 1]                    655,360                   True
│    │    └─BatchNorm2d: 3-29            [2, 10, 32, 32]           [2, 10, 32, 32]           20                          0.01%                   --                        40                        True
│    │    └─ReLU: 3-30                   [2, 10, 32, 32]           [2, 10, 32, 32]           --                             --                   --                        --                        --
│    │    └─Conv2d: 3-31                 [2, 10, 32, 32]           [2, 10, 32, 32]           900                         0.24%                   [3, 3]                    1,843,200                 True
│    │    └─BatchNorm2d: 3-32            [2, 10, 32, 32]           [2, 10, 32, 32]           20                          0.01%                   --                        40                        True
│    │    └─ReLU: 3-33                   [2, 10, 32, 32]           [2, 10, 32, 32]           --                             --                   --                        --                        --
│    │    └─Conv2d: 3-34                 [2, 10, 32, 32]           [2, 10, 16, 16]           900                         0.24%                   [3, 3]                    460,800                   True
│    └─Sequential: 2-17                  [2, 32, 32, 32]           [2, 10, 16, 16]           --                             --                   --                        --                        True
│    │    └─Conv2d: 3-35                 [2, 32, 32, 32]           [2, 10, 32, 32]           320                         0.09%                   [1, 1]                    655,360                   True
│    │    └─BatchNorm2d: 3-36            [2, 10, 32, 32]           [2, 10, 32, 32]           20                          0.01%                   --                        40                        True
│    │    └─ReLU: 3-37                   [2, 10, 32, 32]           [2, 10, 32, 32]           --                             --                   --                        --                        --
│    │    └─Conv2d: 3-38                 [2, 10, 32, 32]           [2, 10, 32, 32]           900                         0.24%                   [3, 3]                    1,843,200                 True
│    │    └─BatchNorm2d: 3-39            [2, 10, 32, 32]           [2, 10, 32, 32]           20                          0.01%                   --                        40                        True
│    │    └─ReLU: 3-40                   [2, 10, 32, 32]           [2, 10, 32, 32]           --                             --                   --                        --                        --
│    │    └─Conv2d: 3-41                 [2, 10, 32, 32]           [2, 10, 32, 32]           900                         0.24%                   [3, 3]                    1,843,200                 True
│    │    └─BatchNorm2d: 3-42            [2, 10, 32, 32]           [2, 10, 32, 32]           20                          0.01%                   --                        40                        True
│    │    └─ReLU: 3-43                   [2, 10, 32, 32]           [2, 10, 32, 32]           --                             --                   --                        --                        --
│    │    └─Conv2d: 3-44                 [2, 10, 32, 32]           [2, 10, 16, 16]           900                         0.24%                   [3, 3]                    460,800                   True
│    └─Sequential: 2-18                  [2, 32, 32, 32]           [2, 10, 16, 16]           --                             --                   --                        --                        True
│    │    └─MaxPool2d: 3-45              [2, 32, 32, 32]           [2, 32, 16, 16]           --                             --                   3                         --                        --
│    │    └─Conv2d: 3-46                 [2, 32, 16, 16]           [2, 10, 16, 16]           320                         0.09%                   [1, 1]                    163,840                   True
│    └─BatchNorm2d: 2-19                 [2, 50, 16, 16]           [2, 50, 16, 16]           100                         0.03%                   --                        200                       True
│    └─ReLU: 2-20                        [2, 50, 16, 16]           [2, 50, 16, 16]           --                             --                   --                        --                        --
│    └─Conv2d: 2-21                      [2, 50, 16, 16]           [2, 32, 16, 16]           1,600                       0.43%                   [1, 1]                    819,200                   True
│    └─Conv2d: 2-22                      [2, 32, 32, 32]           [2, 32, 16, 16]           1,024                       0.28%                   [1, 1]                    524,288                   True
├─InceptionResidualBlock: 1-4            [2, 32, 16, 16]           [2, 32, 16, 16]           --                             --                   --                        --                        True
│    └─BatchNorm2d: 2-23                 [2, 32, 16, 16]           [2, 32, 16, 16]           64                          0.02%                   --                        128                       True
│    └─ReLU: 2-24                        [2, 32, 16, 16]           [2, 32, 16, 16]           --                             --                   --                        --                        --
│    └─Conv2d: 2-25                      [2, 32, 16, 16]           [2, 10, 16, 16]           320                         0.09%                   [1, 1]                    163,840                   True
│    └─Sequential: 2-26                  [2, 32, 16, 16]           [2, 10, 16, 16]           --                             --                   --                        --                        True
│    │    └─Conv2d: 3-47                 [2, 32, 16, 16]           [2, 10, 16, 16]           320                         0.09%                   [1, 1]                    163,840                   True
│    │    └─BatchNorm2d: 3-48            [2, 10, 16, 16]           [2, 10, 16, 16]           20                          0.01%                   --                        40                        True
│    │    └─ReLU: 3-49                   [2, 10, 16, 16]           [2, 10, 16, 16]           --                             --                   --                        --                        --
│    │    └─Conv2d: 3-50                 [2, 10, 16, 16]           [2, 10, 16, 16]           900                         0.24%                   [3, 3]                    460,800                   True
│    └─Sequential: 2-27                  [2, 32, 16, 16]           [2, 10, 16, 16]           --                             --                   --                        --                        True
│    │    └─Conv2d: 3-51                 [2, 32, 16, 16]           [2, 10, 16, 16]           320                         0.09%                   [1, 1]                    163,840                   True
│    │    └─BatchNorm2d: 3-52            [2, 10, 16, 16]           [2, 10, 16, 16]           20                          0.01%                   --                        40                        True
│    │    └─ReLU: 3-53                   [2, 10, 16, 16]           [2, 10, 16, 16]           --                             --                   --                        --                        --
│    │    └─Conv2d: 3-54                 [2, 10, 16, 16]           [2, 10, 16, 16]           900                         0.24%                   [3, 3]                    460,800                   True
│    │    └─BatchNorm2d: 3-55            [2, 10, 16, 16]           [2, 10, 16, 16]           20                          0.01%                   --                        40                        True
│    │    └─ReLU: 3-56                   [2, 10, 16, 16]           [2, 10, 16, 16]           --                             --                   --                        --                        --
│    │    └─Conv2d: 3-57                 [2, 10, 16, 16]           [2, 10, 16, 16]           900                         0.24%                   [3, 3]                    460,800                   True
│    └─Sequential: 2-28                  [2, 32, 16, 16]           [2, 10, 16, 16]           --                             --                   --                        --                        True
│    │    └─Conv2d: 3-58                 [2, 32, 16, 16]           [2, 10, 16, 16]           320                         0.09%                   [1, 1]                    163,840                   True
│    │    └─BatchNorm2d: 3-59            [2, 10, 16, 16]           [2, 10, 16, 16]           20                          0.01%                   --                        40                        True
│    │    └─ReLU: 3-60                   [2, 10, 16, 16]           [2, 10, 16, 16]           --                             --                   --                        --                        --
│    │    └─Conv2d: 3-61                 [2, 10, 16, 16]           [2, 10, 16, 16]           900                         0.24%                   [3, 3]                    460,800                   True
│    │    └─BatchNorm2d: 3-62            [2, 10, 16, 16]           [2, 10, 16, 16]           20                          0.01%                   --                        40                        True
│    │    └─ReLU: 3-63                   [2, 10, 16, 16]           [2, 10, 16, 16]           --                             --                   --                        --                        --
│    │    └─Conv2d: 3-64                 [2, 10, 16, 16]           [2, 10, 16, 16]           900                         0.24%                   [3, 3]                    460,800                   True
│    │    └─BatchNorm2d: 3-65            [2, 10, 16, 16]           [2, 10, 16, 16]           20                          0.01%                   --                        40                        True
│    │    └─ReLU: 3-66                   [2, 10, 16, 16]           [2, 10, 16, 16]           --                             --                   --                        --                        --
│    │    └─Conv2d: 3-67                 [2, 10, 16, 16]           [2, 10, 16, 16]           900                         0.24%                   [3, 3]                    460,800                   True
│    └─Sequential: 2-29                  [2, 32, 16, 16]           [2, 10, 16, 16]           --                             --                   --                        --                        True
│    │    └─AvgPool2d: 3-68              [2, 32, 16, 16]           [2, 32, 16, 16]           --                             --                   3                         --                        --
│    │    └─Conv2d: 3-69                 [2, 32, 16, 16]           [2, 10, 16, 16]           320                         0.09%                   [1, 1]                    163,840                   True
│    └─BatchNorm2d: 2-30                 [2, 50, 16, 16]           [2, 50, 16, 16]           100                         0.03%                   --                        200                       True
│    └─ReLU: 2-31                        [2, 50, 16, 16]           [2, 50, 16, 16]           --                             --                   --                        --                        --
│    └─Conv2d: 2-32                      [2, 50, 16, 16]           [2, 32, 16, 16]           1,600                       0.43%                   [1, 1]                    819,200                   True
│    └─Identity: 2-33                    [2, 32, 16, 16]           [2, 32, 16, 16]           --                             --                   --                        --                        --
├─Sequential: 1-5                        [2, 32, 16, 16]           [2, 32, 16, 16]           --                             --                   --                        --                        True
│    └─BatchNorm2d: 2-34                 [2, 32, 16, 16]           [2, 32, 16, 16]           64                          0.02%                   --                        128                       True
│    └─ReLU: 2-35                        [2, 32, 16, 16]           [2, 32, 16, 16]           --                             --                   --                        --                        --
├─ChannelAttention: 1-6                  [2, 32, 16, 16]           [2, 32, 16, 16]           --                             --                   --                        --                        True
│    └─Linear: 2-36                      [2, 256, 32]              [2, 256, 32]              1,024                       0.28%                   --                        2,048                     True
│    └─Linear: 2-37                      [2, 256, 32]              [2, 256, 32]              1,024                       0.28%                   --                        2,048                     True
│    └─Linear: 2-38                      [2, 256, 32]              [2, 256, 32]              1,024                       0.28%                   --                        2,048                     True
│    └─Dropout: 2-39                     [2, 4, 32, 32]            [2, 4, 32, 32]            --                             --                   --                        --                        --
│    └─Linear: 2-40                      [2, 32]                   [2, 32]                   1,024                       0.28%                   --                        2,048                     True
├─SpatialAttention: 1-7                  [2, 32, 16, 16]           [2, 32, 16, 16]           512                         0.14%                   --                        --                        True
│    └─Conv2d: 2-41                      [2, 32, 16, 16]           [2, 32, 4, 4]             16,384                      4.40%                   [4, 4]                    524,288                   True
│    └─Linear: 2-42                      [2, 16, 32]               [2, 16, 32]               1,024                       0.28%                   --                        2,048                     True
│    └─Linear: 2-43                      [2, 16, 32]               [2, 16, 32]               1,024                       0.28%                   --                        2,048                     True
│    └─Linear: 2-44                      [2, 16, 32]               [2, 16, 32]               1,024                       0.28%                   --                        2,048                     True
│    └─Dropout: 2-45                     [2, 4, 16, 16]            [2, 4, 16, 16]            --                             --                   --                        --                        --
│    └─Linear: 2-46                      [2, 16, 32]               [2, 16, 32]               1,024                       0.28%                   --                        2,048                     True
├─Sequential: 1-8                        [2, 32, 16, 16]           [2, 10]                   --                             --                   --                        --                        True
│    └─BatchNorm2d: 2-47                 [2, 32, 16, 16]           [2, 32, 16, 16]           64                          0.02%                   --                        128                       True
│    └─ReLU: 2-48                        [2, 32, 16, 16]           [2, 32, 16, 16]           --                             --                   --                        --                        --
│    └─Dropout2d: 2-49                   [2, 32, 16, 16]           [2, 32, 16, 16]           --                             --                   --                        --                        --
│    └─AdaptiveAvgPool2d: 2-50           [2, 32, 16, 16]           [2, 32, 1, 1]             --                             --                   --                        --                        --
│    └─Flatten: 2-51                     [2, 32, 1, 1]             [2, 32]                   --                             --                   --                        --                        --
│    └─Linear: 2-52                      [2, 32]                   [2, 10]                   330                         0.09%                   --                        660                       True
├─ResBlock: 1-9                          [2, 32, 16, 16]           [2, 32, 8, 8]             --                             --                   --                        --                        True
│    └─BatchNorm2d: 2-53                 [2, 32, 16, 16]           [2, 32, 16, 16]           64                          0.02%                   --                        128                       True
│    └─ReLU: 2-54                        [2, 32, 16, 16]           [2, 32, 16, 16]           --                             --                   --                        --                        --
│    └─Conv2d: 2-55                      [2, 32, 16, 16]           [2, 64, 8, 8]             18,432                      4.95%                   [3, 3]                    2,359,296                 True
│    └─BatchNorm2d: 2-56                 [2, 64, 8, 8]             [2, 64, 8, 8]             128                         0.03%                   --                        256                       True
│    └─ReLU: 2-57                        [2, 64, 8, 8]             [2, 64, 8, 8]             --                             --                   --                        --                        --
│    └─Dropout2d: 2-58                   [2, 64, 8, 8]             [2, 64, 8, 8]             --                             --                   --                        --                        --
│    └─Conv2d: 2-59                      [2, 64, 8, 8]             [2, 32, 8, 8]             18,432                      4.95%                   [3, 3]                    2,359,296                 True
│    └─Conv2d: 2-60                      [2, 32, 16, 16]           [2, 32, 8, 8]             1,024                       0.28%                   [1, 1]                    131,072                   True
├─Sequential: 1-10                       [2, 32, 8, 8]             [2, 32, 8, 8]             --                             --                   --                        --                        True
│    └─BatchNorm2d: 2-61                 [2, 32, 8, 8]             [2, 32, 8, 8]             64                          0.02%                   --                        128                       True
│    └─ReLU: 2-62                        [2, 32, 8, 8]             [2, 32, 8, 8]             --                             --                   --                        --                        --
├─ChannelAttention: 1-11                 [2, 32, 8, 8]             [2, 32, 8, 8]             --                             --                   --                        --                        True
│    └─Linear: 2-63                      [2, 64, 32]               [2, 64, 32]               1,024                       0.28%                   --                        2,048                     True
│    └─Linear: 2-64                      [2, 64, 32]               [2, 64, 32]               1,024                       0.28%                   --                        2,048                     True
│    └─Linear: 2-65                      [2, 64, 32]               [2, 64, 32]               1,024                       0.28%                   --                        2,048                     True
│    └─Dropout: 2-66                     [2, 4, 32, 32]            [2, 4, 32, 32]            --                             --                   --                        --                        --
│    └─Linear: 2-67                      [2, 32]                   [2, 32]                   1,024                       0.28%                   --                        2,048                     True
├─SpatialAttention: 1-12                 [2, 32, 8, 8]             [2, 32, 8, 8]             512                         0.14%                   --                        --                        True
│    └─Conv2d: 2-68                      [2, 32, 8, 8]             [2, 32, 4, 4]             4,096                       1.10%                   [2, 2]                    131,072                   True
│    └─Linear: 2-69                      [2, 16, 32]               [2, 16, 32]               1,024                       0.28%                   --                        2,048                     True
│    └─Linear: 2-70                      [2, 16, 32]               [2, 16, 32]               1,024                       0.28%                   --                        2,048                     True
│    └─Linear: 2-71                      [2, 16, 32]               [2, 16, 32]               1,024                       0.28%                   --                        2,048                     True
│    └─Dropout: 2-72                     [2, 4, 16, 16]            [2, 4, 16, 16]            --                             --                   --                        --                        --
│    └─Linear: 2-73                      [2, 16, 32]               [2, 16, 32]               1,024                       0.28%                   --                        2,048                     True
├─ResBlock: 1-13                         [2, 32, 8, 8]             [2, 32, 8, 8]             --                             --                   --                        --                        True
│    └─BatchNorm2d: 2-74                 [2, 32, 8, 8]             [2, 32, 8, 8]             64                          0.02%                   --                        128                       True
│    └─ReLU: 2-75                        [2, 32, 8, 8]             [2, 32, 8, 8]             --                             --                   --                        --                        --
│    └─Conv2d: 2-76                      [2, 32, 8, 8]             [2, 64, 8, 8]             18,432                      4.95%                   [3, 3]                    2,359,296                 True
│    └─BatchNorm2d: 2-77                 [2, 64, 8, 8]             [2, 64, 8, 8]             128                         0.03%                   --                        256                       True
│    └─ReLU: 2-78                        [2, 64, 8, 8]             [2, 64, 8, 8]             --                             --                   --                        --                        --
│    └─Dropout2d: 2-79                   [2, 64, 8, 8]             [2, 64, 8, 8]             --                             --                   --                        --                        --
│    └─Conv2d: 2-80                      [2, 64, 8, 8]             [2, 32, 8, 8]             18,432                      4.95%                   [3, 3]                    2,359,296                 True
│    └─Identity: 2-81                    [2, 32, 8, 8]             [2, 32, 8, 8]             --                             --                   --                        --                        --
├─Sequential: 1-14                       [2, 32, 8, 8]             [2, 32, 8, 8]             --                             --                   --                        --                        True
│    └─BatchNorm2d: 2-82                 [2, 32, 8, 8]             [2, 32, 8, 8]             64                          0.02%                   --                        128                       True
│    └─ReLU: 2-83                        [2, 32, 8, 8]             [2, 32, 8, 8]             --                             --                   --                        --                        --
├─ChannelAttention: 1-15                 [2, 32, 8, 8]             [2, 32, 8, 8]             --                             --                   --                        --                        True
│    └─Linear: 2-84                      [2, 64, 32]               [2, 64, 32]               1,024                       0.28%                   --                        2,048                     True
│    └─Linear: 2-85                      [2, 64, 32]               [2, 64, 32]               1,024                       0.28%                   --                        2,048                     True
│    └─Linear: 2-86                      [2, 64, 32]               [2, 64, 32]               1,024                       0.28%                   --                        2,048                     True
│    └─Dropout: 2-87                     [2, 4, 32, 32]            [2, 4, 32, 32]            --                             --                   --                        --                        --
│    └─Linear: 2-88                      [2, 32]                   [2, 32]                   1,024                       0.28%                   --                        2,048                     True
├─SpatialAttention: 1-16                 [2, 32, 8, 8]             [2, 32, 8, 8]             512                         0.14%                   --                        --                        True
│    └─Conv2d: 2-89                      [2, 32, 8, 8]             [2, 32, 4, 4]             4,096                       1.10%                   [2, 2]                    131,072                   True
│    └─Linear: 2-90                      [2, 16, 32]               [2, 16, 32]               1,024                       0.28%                   --                        2,048                     True
│    └─Linear: 2-91                      [2, 16, 32]               [2, 16, 32]               1,024                       0.28%                   --                        2,048                     True
│    └─Linear: 2-92                      [2, 16, 32]               [2, 16, 32]               1,024                       0.28%                   --                        2,048                     True
│    └─Dropout: 2-93                     [2, 4, 16, 16]            [2, 4, 16, 16]            --                             --                   --                        --                        --
│    └─Linear: 2-94                      [2, 16, 32]               [2, 16, 32]               1,024                       0.28%                   --                        2,048                     True
├─Sequential: 1-17                       [2, 32, 8, 8]             [2, 10]                   --                             --                   --                        --                        True
│    └─BatchNorm2d: 2-95                 [2, 32, 8, 8]             [2, 32, 8, 8]             64                          0.02%                   --                        128                       True
│    └─ReLU: 2-96                        [2, 32, 8, 8]             [2, 32, 8, 8]             --                             --                   --                        --                        --
│    └─Dropout2d: 2-97                   [2, 32, 8, 8]             [2, 32, 8, 8]             --                             --                   --                        --                        --
│    └─AdaptiveAvgPool2d: 2-98           [2, 32, 8, 8]             [2, 32, 1, 1]             --                             --                   --                        --                        --
│    └─Flatten: 2-99                     [2, 32, 1, 1]             [2, 32]                   --                             --                   --                        --                        --
│    └─Linear: 2-100                     [2, 32]                   [2, 10]                   330                         0.09%                   --                        660                       True
├─ResBlock: 1-18                         [2, 32, 8, 8]             [2, 64, 4, 4]             --                             --                   --                        --                        True
│    └─BatchNorm2d: 2-101                [2, 32, 8, 8]             [2, 32, 8, 8]             64                          0.02%                   --                        128                       True
│    └─ReLU: 2-102                       [2, 32, 8, 8]             [2, 32, 8, 8]             --                             --                   --                        --                        --
│    └─Conv2d: 2-103                     [2, 32, 8, 8]             [2, 64, 4, 4]             18,432                      4.95%                   [3, 3]                    589,824                   True
│    └─BatchNorm2d: 2-104                [2, 64, 4, 4]             [2, 64, 4, 4]             128                         0.03%                   --                        256                       True
│    └─ReLU: 2-105                       [2, 64, 4, 4]             [2, 64, 4, 4]             --                             --                   --                        --                        --
│    └─Dropout2d: 2-106                  [2, 64, 4, 4]             [2, 64, 4, 4]             --                             --                   --                        --                        --
│    └─Conv2d: 2-107                     [2, 64, 4, 4]             [2, 64, 4, 4]             36,864                      9.90%                   [3, 3]                    1,179,648                 True
│    └─Conv2d: 2-108                     [2, 32, 8, 8]             [2, 64, 4, 4]             2,048                       0.55%                   [1, 1]                    65,536                    True
├─Sequential: 1-19                       [2, 64, 4, 4]             [2, 64, 4, 4]             --                             --                   --                        --                        True
│    └─BatchNorm2d: 2-109                [2, 64, 4, 4]             [2, 64, 4, 4]             128                         0.03%                   --                        256                       True
│    └─ReLU: 2-110                       [2, 64, 4, 4]             [2, 64, 4, 4]             --                             --                   --                        --                        --
├─ChannelAttention: 1-20                 [2, 64, 4, 4]             [2, 64, 4, 4]             --                             --                   --                        --                        True
│    └─Linear: 2-111                     [2, 16, 64]               [2, 16, 64]               4,096                       1.10%                   --                        8,192                     True
│    └─Linear: 2-112                     [2, 16, 64]               [2, 16, 64]               4,096                       1.10%                   --                        8,192                     True
│    └─Linear: 2-113                     [2, 16, 64]               [2, 16, 64]               4,096                       1.10%                   --                        8,192                     True
│    └─Dropout: 2-114                    [2, 4, 64, 64]            [2, 4, 64, 64]            --                             --                   --                        --                        --
│    └─Linear: 2-115                     [2, 64]                   [2, 64]                   4,096                       1.10%                   --                        8,192                     True
├─SpatialAttention: 1-21                 [2, 64, 4, 4]             [2, 64, 4, 4]             1,024                       0.28%                   --                        --                        True
│    └─Conv2d: 2-116                     [2, 64, 4, 4]             [2, 64, 4, 4]             4,096                       1.10%                   [1, 1]                    131,072                   True
│    └─Linear: 2-117                     [2, 16, 64]               [2, 16, 64]               4,096                       1.10%                   --                        8,192                     True
│    └─Linear: 2-118                     [2, 16, 64]               [2, 16, 64]               4,096                       1.10%                   --                        8,192                     True
│    └─Linear: 2-119                     [2, 16, 64]               [2, 16, 64]               4,096                       1.10%                   --                        8,192                     True
│    └─Dropout: 2-120                    [2, 4, 16, 16]            [2, 4, 16, 16]            --                             --                   --                        --                        --
│    └─Linear: 2-121                     [2, 16, 64]               [2, 16, 64]               4,096                       1.10%                   --                        8,192                     True
├─Sequential: 1-22                       [2, 64, 4, 4]             [2, 10]                   --                             --                   --                        --                        True
│    └─BatchNorm2d: 2-122                [2, 64, 4, 4]             [2, 64, 4, 4]             128                         0.03%                   --                        256                       True
│    └─ReLU: 2-123                       [2, 64, 4, 4]             [2, 64, 4, 4]             --                             --                   --                        --                        --
│    └─Dropout2d: 2-124                  [2, 64, 4, 4]             [2, 64, 4, 4]             --                             --                   --                        --                        --
│    └─AdaptiveAvgPool2d: 2-125          [2, 64, 4, 4]             [2, 64, 1, 1]             --                             --                   --                        --                        --
│    └─Flatten: 2-126                    [2, 64, 1, 1]             [2, 64]                   --                             --                   --                        --                        --
│    └─Linear: 2-127                     [2, 64]                   [2, 10]                   650                         0.17%                   --                        1,300                     True
├─ResBlock: 1-23                         [2, 64, 4, 4]             [2, 128, 2, 2]            --                             --                   --                        --                        True
│    └─BatchNorm2d: 2-128                [2, 64, 4, 4]             [2, 64, 4, 4]             128                         0.03%                   --                        256                       True
│    └─ReLU: 2-129                       [2, 64, 4, 4]             [2, 64, 4, 4]             --                             --                   --                        --                        --
│    └─Conv2d: 2-130                     [2, 64, 4, 4]             [2, 64, 2, 2]             36,864                      9.90%                   [3, 3]                    294,912                   True
│    └─BatchNorm2d: 2-131                [2, 64, 2, 2]             [2, 64, 2, 2]             128                         0.03%                   --                        256                       True
│    └─ReLU: 2-132                       [2, 64, 2, 2]             [2, 64, 2, 2]             --                             --                   --                        --                        --
│    └─Dropout2d: 2-133                  [2, 64, 2, 2]             [2, 64, 2, 2]             --                             --                   --                        --                        --
│    └─Conv2d: 2-134                     [2, 64, 2, 2]             [2, 128, 2, 2]            73,728                     19.81%                   [3, 3]                    589,824                   True
│    └─Conv2d: 2-135                     [2, 64, 4, 4]             [2, 128, 2, 2]            8,192                       2.20%                   [1, 1]                    65,536                    True
├─Sequential: 1-24                       [2, 128, 2, 2]            [2, 10]                   --                             --                   --                        --                        True
│    └─BatchNorm2d: 2-136                [2, 128, 2, 2]            [2, 128, 2, 2]            256                         0.07%                   --                        512                       True
│    └─ReLU: 2-137                       [2, 128, 2, 2]            [2, 128, 2, 2]            --                             --                   --                        --                        --
│    └─Dropout2d: 2-138                  [2, 128, 2, 2]            [2, 128, 2, 2]            --                             --                   --                        --                        --
│    └─AdaptiveAvgPool2d: 2-139          [2, 128, 2, 2]            [2, 128, 1, 1]            --                             --                   --                        --                        --
│    └─Flatten: 2-140                    [2, 128, 1, 1]            [2, 128]                  --                             --                   --                        --                        --
│    └─Linear: 2-141                     [2, 128]                  [2, 10]                   1,290                       0.35%                   --                        2,580                     True
=======================================================================================================================================================================================================================
Total params: 372,264
Trainable params: 372,264
Non-trainable params: 0
Total mult-adds (Units.MEGABYTES): 47.73
…
