…
=======================================================================================================================================================================================================================
Layer (type:depth-idx)                   Input Shape               Output Shape              Param #                   Param %                   Kernel Shape              Mult-Adds                 Trainable
=======================================================================================================================================================================================================================
Try1Model                                [2, 3, 34, 34]            [2, 10]                   --                             --                   --                        --                        True
├─ConvNormActDrop: 1-1                   [2, 3, 34, 34]            [2, 8, 32, 32]            --                             --                   --                        --                        True
│    └─Conv2d: 2-1                       [2, 3, 34, 34]            [2, 8, 32, 32]            216                         0.05%                   [3, 3]                    442,368                   True
│    └─BatchNorm2d: 2-2                  [2, 8, 32, 32]            [2, 8, 32, 32]            16                          0.00%                   --                        32                        True
│    └─ReLU: 2-3                         [2, 8, 32, 32]            [2, 8, 32, 32]            --                             --                   --                        --                        --
│    └─Dropout2d: 2-4                    [2, 8, 32, 32]            [2, 8, 32, 32]            --                             --                   --                        --                        --
├─ConvNormActDrop: 1-2                   [2, 8, 32, 32]            [2, 8, 32, 32]            --                             --                   --                        --                        True
│    └─Conv2d: 2-5                       [2, 8, 32, 32]            [2, 8, 32, 32]            64                          0.02%                   [1, 1]                    131,072                   True
│    └─BatchNorm2d: 2-6                  [2, 8, 32, 32]            [2, 8, 32, 32]            16                          0.00%                   --                        32                        True
│    └─ReLU: 2-7                         [2, 8, 32, 32]            [2, 8, 32, 32]            --                             --                   --                        --                        --
│    └─Dropout2d: 2-8                    [2, 8, 32, 32]            [2, 8, 32, 32]            --                             --                   --                        --                        --
├─ConvNormActDrop: 1-3                   [2, 8, 32, 32]            [2, 8, 32, 32]            --                             --                   --                        --                        True
│    └─Conv2d: 2-9                       [2, 8, 32, 32]            [2, 8, 32, 32]            64                          0.02%                   [1, 1]                    131,072                   True
│    └─BatchNorm2d: 2-10                 [2, 8, 32, 32]            [2, 8, 32, 32]            16                          0.00%                   --                        32                        True
│    └─ReLU: 2-11                        [2, 8, 32, 32]            [2, 8, 32, 32]            --                             --                   --                        --                        --
│    └─Dropout2d: 2-12                   [2, 8, 32, 32]            [2, 8, 32, 32]            --                             --                   --                        --                        --
├─ConvNormActDrop: 1-4                   [2, 8, 32, 32]            [2, 16, 16, 16]           --                             --                   --                        --                        True
│    └─Conv2d: 2-13                      [2, 8, 32, 32]            [2, 16, 16, 16]           1,152                       0.28%                   [3, 3]                    589,824                   True
│    └─BatchNorm2d: 2-14                 [2, 16, 16, 16]           [2, 16, 16, 16]           32                          0.01%                   --                        64                        True
│    └─ReLU: 2-15                        [2, 16, 16, 16]           [2, 16, 16, 16]           --                             --                   --                        --                        --
│    └─Dropout2d: 2-16                   [2, 16, 16, 16]           [2, 16, 16, 16]           --                             --                   --                        --                        --
├─ConvNormActDrop: 1-5                   [2, 16, 16, 16]           [2, 16, 16, 16]           --                             --                   --                        --                        True
│    └─Conv2d: 2-17                      [2, 16, 16, 16]           [2, 16, 16, 16]           256                         0.06%                   [1, 1]                    131,072                   True
│    └─BatchNorm2d: 2-18                 [2, 16, 16, 16]           [2, 16, 16, 16]           32                          0.01%                   --                        64                        True
│    └─ReLU: 2-19                        [2, 16, 16, 16]           [2, 16, 16, 16]           --                             --                   --                        --                        --
│    └─Dropout2d: 2-20                   [2, 16, 16, 16]           [2, 16, 16, 16]           --                             --                   --                        --                        --
├─ConvNormActDrop: 1-6                   [2, 16, 16, 16]           [2, 16, 16, 16]           --                             --                   --                        --                        True
│    └─Conv2d: 2-21                      [2, 16, 16, 16]           [2, 16, 16, 16]           256                         0.06%                   [1, 1]                    131,072                   True
│    └─BatchNorm2d: 2-22                 [2, 16, 16, 16]           [2, 16, 16, 16]           32                          0.01%                   --                        64                        True
│    └─ReLU: 2-23                        [2, 16, 16, 16]           [2, 16, 16, 16]           --                             --                   --                        --                        --
│    └─Dropout2d: 2-24                   [2, 16, 16, 16]           [2, 16, 16, 16]           --                             --                   --                        --                        --
├─ConvNormActDrop: 1-7                   [2, 16, 16, 16]           [2, 32, 8, 8]             --                             --                   --                        --                        True
│    └─Conv2d: 2-25                      [2, 16, 16, 16]           [2, 32, 8, 8]             4,608                       1.13%                   [3, 3]                    589,824                   True
│    └─BatchNorm2d: 2-26                 [2, 32, 8, 8]             [2, 32, 8, 8]             64                          0.02%                   --                        128                       True
│    └─ReLU: 2-27                        [2, 32, 8, 8]             [2, 32, 8, 8]             --                             --                   --                        --                        --
│    └─Dropout2d: 2-28                   [2, 32, 8, 8]             [2, 32, 8, 8]             --                             --                   --                        --                        --
├─ConvNormActDrop: 1-8                   [2, 32, 8, 8]             [2, 32, 8, 8]             --                             --                   --                        --                        True
│    └─Conv2d: 2-29                      [2, 32, 8, 8]             [2, 32, 8, 8]             1,024                       0.25%                   [1, 1]                    131,072                   True
│    └─BatchNorm2d: 2-30                 [2, 32, 8, 8]             [2, 32, 8, 8]             64                          0.02%                   --                        128                       True
│    └─ReLU: 2-31                        [2, 32, 8, 8]             [2, 32, 8, 8]             --                             --                   --                        --                        --
│    └─Dropout2d: 2-32                   [2, 32, 8, 8]             [2, 32, 8, 8]             --                             --                   --                        --                        --
├─ConvNormActDrop: 1-9                   [2, 32, 8, 8]             [2, 32, 8, 8]             --                             --                   --                        --                        True
│    └─Conv2d: 2-33                      [2, 32, 8, 8]             [2, 32, 8, 8]             1,024                       0.25%                   [1, 1]                    131,072                   True
│    └─BatchNorm2d: 2-34                 [2, 32, 8, 8]             [2, 32, 8, 8]             64                          0.02%                   --                        128                       True
│    └─ReLU: 2-35                        [2, 32, 8, 8]             [2, 32, 8, 8]             --                             --                   --                        --                        --
│    └─Dropout2d: 2-36                   [2, 32, 8, 8]             [2, 32, 8, 8]             --                             --                   --                        --                        --
├─ConvNormActDrop: 1-10                  [2, 32, 8, 8]             [2, 64, 4, 4]             --                             --                   --                        --                        True
│    └─Conv2d: 2-37                      [2, 32, 8, 8]             [2, 64, 4, 4]             18,432                      4.52%                   [3, 3]                    589,824                   True
│    └─BatchNorm2d: 2-38                 [2, 64, 4, 4]             [2, 64, 4, 4]             128                         0.03%                   --                        256                       True
│    └─ReLU: 2-39                        [2, 64, 4, 4]             [2, 64, 4, 4]             --                             --                   --                        --                        --
│    └─Dropout2d: 2-40                   [2, 64, 4, 4]             [2, 64, 4, 4]             --                             --                   --                        --                        --
├─ConvNormActDrop: 1-11                  [2, 64, 4, 4]             [2, 64, 4, 4]             --                             --                   --                        --                        True
│    └─Conv2d: 2-41                      [2, 64, 4, 4]             [2, 64, 4, 4]             4,096                       1.00%                   [1, 1]                    131,072                   True
│    └─BatchNorm2d: 2-42                 [2, 64, 4, 4]             [2, 64, 4, 4]             128                         0.03%                   --                        256                       True
│    └─ReLU: 2-43                        [2, 64, 4, 4]             [2, 64, 4, 4]             --                             --                   --                        --                        --
│    └─Dropout2d: 2-44                   [2, 64, 4, 4]             [2, 64, 4, 4]             --                             --                   --                        --                        --
├─ConvNormActDrop: 1-12                  [2, 64, 4, 4]             [2, 64, 4, 4]             --                             --                   --                        --                        True
│    └─Conv2d: 2-45                      [2, 64, 4, 4]             [2, 64, 4, 4]             4,096                       1.00%                   [1, 1]                    131,072                   True
│    └─BatchNorm2d: 2-46                 [2, 64, 4, 4]             [2, 64, 4, 4]             128                         0.03%                   --                        256                       True
│    └─ReLU: 2-47                        [2, 64, 4, 4]             [2, 64, 4, 4]             --                             --                   --                        --                        --
│    └─Dropout2d: 2-48                   [2, 64, 4, 4]             [2, 64, 4, 4]             --                             --                   --                        --                        --
├─ConvNormActDrop: 1-13                  [2, 64, 4, 4]             [2, 128, 2, 2]            --                             --                   --                        --                        True
│    └─Conv2d: 2-49                      [2, 64, 4, 4]             [2, 128, 2, 2]            73,728                     18.07%                   [3, 3]                    589,824                   True
│    └─BatchNorm2d: 2-50                 [2, 128, 2, 2]            [2, 128, 2, 2]            256                         0.06%                   --                        512                       True
│    └─ReLU: 2-51                        [2, 128, 2, 2]            [2, 128, 2, 2]            --                             --                   --                        --                        --
│    └─Dropout2d: 2-52                   [2, 128, 2, 2]            [2, 128, 2, 2]            --                             --                   --                        --                        --
├─ConvNormActDrop: 1-14                  [2, 128, 2, 2]            [2, 256, 1, 1]            --                             --                   --                        --                        True
│    └─Conv2d: 2-53                      [2, 128, 2, 2]            [2, 256, 1, 1]            294,912                    72.28%                   [3, 3]                    589,824                   True
│    └─BatchNorm2d: 2-54                 [2, 256, 1, 1]            [2, 256, 1, 1]            512                         0.13%                   --                        1,024                     True
│    └─ReLU: 2-55                        [2, 256, 1, 1]            [2, 256, 1, 1]            --                             --                   --                        --                        --
│    └─Dropout2d: 2-56                   [2, 256, 1, 1]            [2, 256, 1, 1]            --                             --                   --                        --                        --
├─AdaptiveAvgPool2d: 1-15                [2, 256, 1, 1]            [2, 256, 1, 1]            --                             --                   --                        --                        --
├─Linear: 1-16                           [2, 256]                  [2, 10]                   2,570                       0.63%                   --                        5,140                     True
=======================================================================================================================================================================================================================
Total params: 407,986
Trainable params: 407,986
Non-trainable params: 0
Total mult-adds (Units.MEGABYTES): 4.45
…
